radflux_realtime_lstm/best_model.pt (torch, 159607 bytes, 8 tensors)

conv1.weight f4 [64, 10, 7]
0.043638665 -0.045547254 -0.012063441 0.1201086 3.9776525e-05 -0.030388778 -0.07428587 -0.07702765
-0.012810522 -0.07721516 0.085874885 -0.04022063 -0.10974599 -0.018130135 0.07702506 -0.075265795
-0.038519297 0.030334983 -0.08664467 0.12104282 0.09877813 0.085517496 -0.074822 -0.10064386
-0.057386804 -0.0040415013 0.077266686 -0.08121091 0.05581721 0.021721322 0.09433094 0.08057373
-0.041811325 -0.051822275 0.050535083 -0.034588367 -0.081628725 -0.0850469 -0.019083524 0.061497755
0.09847365 0.017365187 0.11990081 -0.022193324 0.06987943 0.10091481 -0.061429936 0.04477239
0.020120287 0.0565144 0.107734956 0.0067044543 0.02457835 -0.08815081 0.05483676 0.10759627
0.040485688 0.0025501193 0.115021616 0.081239246 0.04823188 -0.050990812 0.12048021 -0.041264378
-0.085608155 -0.07522927 -0.04667606 -0.0038067123 0.06333616 0.036540966 0.099489935 -0.044625763
-0.01414294 -0.032476425 -0.0938507 0.0062123397 0.08580221 -0.06973881 -0.0318838 -0.03405645
0.110348634 0.046885993 -0.085549586 -0.07865512 0.09537869 -0.05747863 0.07904965 0.06571576
0.09286585 -0.011452181 -0.07928342 -0.11120345 0.07387515 0.048350494 -0.01701298 0.030940466
-0.08250891 -0.029023673 0.10540505 -0.004320256 -0.00020984863 -0.008650272 0.055162888 -0.024562065
0.07581845 -0.09148509 0.07919082 -0.043954827 -0.11505074 0.012457396 -0.08606329 0.064776935
-0.039764542 -0.1087655 0.093190715 -0.04406497 -0.10900425 -0.09758652 -0.062089298 -0.029909449
-0.045405306 0.10530603 0.034547713 0.112632185 0.082940266 -0.052369986 -0.012609519 -0.043108705
-0.03681658 0.10762524 -0.051656965 0.08392091 0.032649886 0.056863658 -0.02677218 -0.002856634
-0.051146504 -0.10791327 0.0348105 0.006378099 0.005094927 0.026087523 -0.05170371 -0.083956964
-0.006763881 0.06818094 -0.046474222 0.11749255 -0.103407435 0.10534043 -0.07491658 0.006796078
-0.104778804 0.009201062 -0.01905012 -0.11497172 -0.09684603 0.08105445 -0.038148675 -0.10269634
-0.04167929 0.08087169 -0.038960446 -0.046212584 -0.07356892 -0.04199767 -0.099383935 0.04941845
0.01845487 0.10592986 -0.07336164 0.0651948 -0.0008737349 -0.0121138245 0.10871547 0.03354888
-0.03683532 0.007851661 -0.023350265 -0.036853142 -0.056946624 0.09378573 0.00059791293 0.0030450758
0.05502808 -0.013511223 -0.11939231 0.024826568 -0.0024366202 -0.10330839 -0.110508785 -0.09934192
-0.111768395 0.10564115 -0.054701623 0.10203541 -0.028188866 -0.09317625 0.11185581 -0.034572292
-0.0860797 -0.040946174 0.05665246 -0.08981922 0.04322832 0.040754657 -0.05284956 -0.097058706
0.03223692 0.0135383755 -0.04691833 -0.022986617 -0.06788295 0.025947731 -0.033319682 -0.0033107628
0.066529304 -0.06424919 0.05913615 0.04998601 -0.059224572 -0.10499845 -0.087917596 0.04497816
-0.085735045 0.082424626 -0.036641743 0.0010812831 -0.03628918 -0.077028394 -0.065020785 -0.025336627
-0.043610465 -0.0068248175 -0.03927589 0.057058603 0.0063712127 -0.11384286 -0.10575743 -0.0054526855
-0.07044049 -0.07756948 0.09446592 -0.062416762 -0.06127502 -0.07906054 -0.07415411 -0.036727317
-0.017053228 0.09532005 -0.006534298 -0.10171121 0.06872951 -0.050952148 -0.098009184 0.10615448
00000000: 75be 323d c28f 3abd bda5 45bc 7ffb f53d
00000010: b8d5 2638 e3f1 f8bc 3123 98bd acc0 9dbd
00000020: 39e3 51bc fb22 9ebd 2cdf af3d 63be 24bd
00000030: 81c2 e0bd a685 94bc 51bf 9d3d f424 9abd
00000040: 69c6 1dbd 1281 f83c c372 b1bd 4ce5 f73d
00000050: 304c ca3d cc23 af3d 473c 99bd 5e1e cebd
00000060: 6d0e 6bbd 926e 84bb ff3d 9e3d e851 a6bd
00000070: 96a0 643d eaf0 b13c 9430 c13d d703 a53d
00000080: 5a42 2bbd 9843 54bd e0fd 4e3d 88ac 0dbd
00000090: f62c a7bd 122d aebd 0d55 9cbc 12e5 7b3d
000000a0: 8eac c93d 7041 8e3c 8e8e f53d c6ce b5bc
000000b0: f21c 8f3d 6dac ce3d f59d 7bbd 4163 373d
000000c0: 4dd3 a43c a57b 673d 25a4 dc3d 0ab1 db3b
000000d0: 8958 c93c 6988 b4bd 839c 603d 6f5b dc3d
000000e0: 52d4 253d e71f 273b 7490 eb3d c360 a63d
000000f0: cb8e 453d bedb 50bd 54be f63d d604 29bd
00000100: 5453 afbd ce11 9abd 652f 3fbd 097a 79bb
00000110: 63b6 813d fbab 153d 61c1 cb3d 81c9 36bd
00000120: cab7 67bc 0006 05bd cc34 c0bd e290 cb3b
00000130: 12b9 af3d 39d3 8ebd 9698 02bd c77e 0bbd
00000140: 77fe e13d 870b 403d 9f34 afbd f015 a1bd
00000150: e755 c33d b66e 6bbd c8e4 a13d fc95 863d
00000160: 7330 be3d eea1 3bbc 595f a2bd a2be e3bd
00000170: db4b 973d 2b0b 463d ce5e 8bbc dc76 fd3c
00000180: 6efa a8bd 0ec3 edbc 9ade d73d ef90 8dbb
00000190: d00a 5cb9 dfb9 0dbc 7bf2 613d 6236 c9bc
000001a0: b446 9b3d 895c bbbd cc2e a23d fa09 34bd
000001b0: b99f ebbd 1b1a 4c3c f341 b0bd c5a9 843d
000001c0: 25e0 22bd 72c0 debd c6da be3d 787d 34bd
000001d0: 9f3d dfbd 71db c7bd 5951 7ebd a904 f5bc
000001e0: eafa 39bd b0aa d73d e781 0d3d b4ab e63d
000001f0: 96dc a93d e981 56bd 2898 4ebc c192 30bd
00000200: fbcc 16bd 9f6a dc3d 4196 53bd bade ab3d
00000210: e3bb 053d dee9 683d 5551 dbbc 5e36 3bbb
00000220: ff7e 51bd a201 ddbd 7495 0e3d 5fff d03b
00000230: 58f3 a63b 80b5 d53c 45c7 53bd a1f1 abbd
00000240: 8ca3 ddbb 73a2 8b3d c15b 3ebd ef9f f03d
00000250: 47c7 d3bd b9bc d73d dd6d 99bd a2b1 de3b
00000260: 4596 d6bd 0dc0 163c ff0e 9cbc 4b76 ebbd
00000270: 3657 c6bd e0ff a53d c941 1cbd 7552 d2bd
00000280: e7b7 2abd 0ea0 a53d fd94 1fbd 6849 3dbd
00000290: 4dab 96bd c005 2cbd ce89 cbbd 006b 4a3d
000002a0: ab2e 973c c1f1 d83d a13e 96bd da84 853d
000002b0: 5b0b 65ba 1079 46bc 37a6 de3d 8d6a 093d
000002c0: a2e0 16bd 41a4 003c 0e49 bfbc 52f3 16bd
000002d0: dd40 69bd bc12 c03d 42bd 1c3a e58f 473b
000002e0: 2065 613d 2d5e 5dbc f583 f4bd 1661 cb3c
000002f0: b4af 1fbb 5993 d3bd 6e52 e2bd c773 cbbd
00000300: d4e6 e4bd 635a d83d cf0e 60bd f1f7 d03d
00000310: 56ec e6bc 31d3 bebd a914 e53d ad9b 0dbd
00000320: 8e4a b0bd 2db7 27bd 690c 683d 24f3 b7bd
00000330: 2e10 313d 5bee 263d c878 58bd b7c6 c6bd
00000340: dc0a 043d 10d0 5d3c 6f2d 40bd 6e4e bcbc
00000350: 3706 8bbd 5690 d43c 387a 08bd 62f9 58bb
00000360: 8440 883d 1495 83bd bf38 723d 21be 4c3d
00000370: 7795 72bd 6d09 d7bd 240e b4bd 053b 383d
00000380: db95 afbd 3ece a83d a715 16bd d7b9 8d3a
00000390: f7a3 14bd 10c1 9dbd 9e29 85bd c28e cfbc
000003a0: e3a0 32bd b8a2 dfbb c1df 20bd 48b6 693d
000003b0: 9bc5 d03b 7226 e9bd 5a97 d8bd 71ac b2bb
000003c0: 1b43 90bd bfdc 9ebd 5977 c13d b8a8 7fbd
000003d0: 84fb 7abd 7eea a1bd 1cde 97bd 626f 16bd
000003e0: 36b3 8bbc 2937 c33d aa1d d6bb f84d d0bd
000003f0: 0fc2 8c3d 33b3 50bd 0ab9 c8bd 8567 d93d

conv1.bias f4 [64]
-0.032476712 -0.07960637 0.01771236 0.019133002 -0.020160204 0.011371189 0.015209024 -0.0061333408
-0.053230923 -0.011651298 -0.045725867 0.08643878 0.031669397 0.04355325 0.00083781074 -0.12100798
0.059859864 0.11364106 -0.11790915 0.058889788 -0.0029909655 0.101744205 -0.0035916986 0.039186765
0.10169239 0.10014727 -0.033286795 -0.009354622 -0.00866505 0.10694834 0.024320802 -0.0033302708
-0.064665355 0.013229149 -0.056216437 -0.11356097 0.112435676 0.10150651 0.047190245 -0.059804596
-0.054267958 0.09906858 0.08340943 0.0052451952 0.011718051 0.02936966 0.010539104 -0.11504199
0.106139995 -0.10654492 -0.05320713 0.080088206 0.021435175 0.015091702 -0.05325174 -0.048661012
0.08729316 0.07167072 -0.0034529387 0.07721373 -0.07359184 0.035027277 -0.06581967 0.08946669
00000000: 4d06 05bd aa08 a3bd 8319 913c d0bc 9c3c
00000010: 0327 a5bc 394e 3a3c 452f 793c 31fa c8bb
00000020: ab08 5abd 16e5 3ebc 0c4b 3bbd d106 b13d
00000030: c5b7 013d e564 323d 87a0 5b3a 08d3 f7bd
00000040: 9e2f 753d a5bc e83d 5a7a f1bd 6b36 713d
00000050: 1304 44bb 445f d03d b462 6bbb 4d82 203d
00000060: 1a44 d03d 031a cd3d bc57 08bd 2144 19bc
00000070: dbf7 0dbc bb07 db3d 6b3c c73c ac40 5abb
00000080: 456f 84bd 13bf 583c 3543 66bd a792 e8bd
00000090: ad44 e63d a5e2 cf3d 8f4a 413d aaf5 74bd
000000a0: 1448 5ebd 78e4 ca3d 90d2 aa3d e3df ab3b
000000b0: 11fd 3f3c a498 f03c 35ac 2c3c 239b ebbd
000000c0: ed5f d93d 3934 dabd b8ef 59bd 4905 a43d
000000d0: d298 af3c 3043 773c 7f1e 5abd c550 47bd
000000e0: c2c6 b23d 19c8 923d b34a 62bb 3b22 9e3d
000000f0: 52b7 96bd c378 0f3d 77cc 86bd 503a b73d

lstm.weight_ih_l0 f4 [256, 64]
0.0036764874 -0.04231361 -0.11574417 -0.044335514 0.13060069 -0.021335483 -0.012305728 -0.10274903
-0.07547759 -0.10226923 0.06060031 0.04637557 0.050264467 -0.0010387795 -0.06756719 0.03154114
-0.06691015 0.11066824 -0.025191704 -0.077396706 -0.03829539 -0.10114977 0.021763604 0.074827254
-0.10285307 -0.05671129 -0.04893832 -0.034891948 -0.06044823 0.12277127 -0.033042587 -0.065374054
-0.10100103 0.081680186 -0.08404292 -0.016191367 -0.09030376 0.049415894 0.051426858 -0.015003779
0.03920476 0.008844602 -0.092823 0.103041895 0.11707731 0.13414018 0.036490124 0.0786218
-0.019528663 -0.07623254 0.0026690057 -0.05148928 0.12171086 -0.05629009 0.068435505 -0.08299289
0.060237285 -0.020038107 0.029680941 -0.08410076 -0.07991829 -0.06962469 0.051839456 0.0064341878
0.10963212 0.043457415 0.00968396 -0.10470426 -0.0064365957 0.07985209 0.07904349 -0.10734667
0.080435894 -0.09465239 0.10744335 -0.09744895 0.01321581 -0.016410716 0.05514423 -0.07059939
0.07466988 -0.10482508 -0.05869813 -0.050534174 -0.0423867 -0.09448491 -0.0627155 0.03750047
-0.07500354 0.058981217 -0.037246305 0.0275165 0.101325125 0.024759257 0.03730646 0.13374707
0.10610282 0.09355465 -0.053614885 -0.10819507 0.018979393 -0.0719216 -0.019260641 0.10815093
0.027574718 -0.058474883 0.03443405 -0.049477562 -0.08478685 -0.075074345 -0.010982156 -0.025315106
0.030272348 0.077732936 0.06047357 -0.009446532 -0.09689203 -0.067305654 0.013231963 -0.00039162833
-0.044336043 0.0699417 0.122613996 -0.040486045 0.072913155 0.062174395 -0.04760501 -0.093658604
0.037855595 0.1218428 0.12241872 0.095379904 0.07972203 0.03529495 0.10519491 0.10546373
-0.029555187 0.0026167333 0.03632906 -0.0373338 -0.10755199 0.097807884 0.054461613 0.1051285
-0.048667952 -0.034057483 -0.03331022 0.11852245 -0.08878958 0.05934541 0.088501334 -0.086808026
0.06107694 0.031827435 0.1067086 0.04941696 -0.12411851 0.112384036 0.047351867 0.045063764
-0.097771645 -0.10823575 0.09618053 0.0058487505 0.070880115 0.1138103 -0.047506332 -0.006265104
0.107058406 0.033767402 0.113474056 -0.029817864 0.02721572 0.05588767 0.033086374 0.019175753
0.066630974 -0.057192132 -0.033970594 -0.095127985 -0.027311996 0.07446502 -0.009003878 0.01940471
-0.009196445 -0.019215912 -0.019842684 -0.05973275 0.11300334 0.06381424 0.07707496 -0.09449504
-0.005052494 -0.08952842 0.098413266 -0.098525286 0.0708541 0.051309258 -0.04188956 0.0020540191
-0.050944358 0.0077297622 -0.060994405 0.03036598 -0.007164712 -0.13277674 0.10152468 -0.11213207
0.119197294 0.097362615 0.04487099 -0.10482063 -0.024760643 -0.020407332 -0.107146055 -0.0052497983
-0.025061643 0.11933679 -0.022472605 -0.091813475 0.045264438 -0.019749505 0.057947654 -0.010993561
0.08877097 -0.0029664729 0.006304012 -0.07896414 -0.12041335 0.00020226024 -0.0054974025 -0.035133686
-0.0134868445 -0.04586117 0.014030184 -0.045978405 0.06851217 -0.06956794 0.092223704 -0.110324375
-0.11987602 0.0031230599 -0.096387014 0.076569356 -0.121022016 -0.0666917 0.05949931 -0.123854674
-0.12404991 0.05238356 -0.047430493 0.05752356 -0.09007942 0.057707597 0.017432766 -0.09722338
00000000: 39f1 703b 0951 2dbd 480b edbd 2899 35bd
00000010: 30bc 053e c0c7 aebc f79d 49bc 156e d2bd
00000020: ff93 9abd 8872 d1bd 0838 783d 4ff4 3d3d
00000030: 1de2 4d3d a827 88ba ab60 8abd 4831 013d
00000040: 3008 89bd 08a6 e23d d55e cebc 2a82 9ebd
00000050: a0db 1cbd 9c27 cfbd 9649 b23c 083f 993d
00000060: a1a4 d2bd 194a 68bd 8c73 48bd dcea 0ebd
00000070: 9098 77bd 816f fb3d aa57 07bd d5e2 85bd
00000080: a1d9 cebd f147 a73d b21e acbd c2a3 84bc
00000090: 2df1 b8bd 5268 4a3d f8a4 523d 69d2 75bc
000000a0: 2c95 203d f3e8 103c fc19 bebd a107 d33d
000000b0: 3bc6 ef3d 0b5c 093e ab76 153d 7704 a13d
000000c0: 93fa 9fbc ce1f 9cbd 7cea 2e3b 6ce6 52bd
000000d0: 8b43 f93d 7090 66bd ea27 8c3d 2df8 a9bd
000000e0: 5fbb 763d f526 a4bc 7225 f33c 053d acbd
000000f0: 33ac a3bd 6497 8ebd 9c55 543d e1d5 d23b
00000100: ce86 e03d 6700 323d 79a9 1e3c 306f d6bd
00000110: 14ea d2bb 7e89 a33d 8ee1 a13d 92d8 dbbd
00000120: 93bb a43d 1dd9 c1bd 420b dc3d 5193 c7bd
00000130: 2087 583c c46f 86bc ebde 613d 6a96 90bd
00000140: 86ec 983d 88ae d6bd 736d 70bd ecfc 4ebd
00000150: ad9d 2dbd 4e81 c1bd fc70 80bd 189a 193d
00000160: 759b 99bd 4a96 713d 958f 18bd 486a e13c
00000170: 8c83 cf3d edd3 ca3c a9ce 183d fef4 083e
00000180: 6f4c d93d 9599 bf3d 489b 5bbd 6095 ddbd
00000190: ac7a 9b3c a24b 93bd 7ec8 9dbc 3c7e dd3d
000001a0: 60e4 e13c 5c83 6fbd b80a 0d3d fca8 4abd
000001b0: baa4 adbd 94c0 99bd 80ee 33bc a061 cfbc
000001c0: b7fd f73c 7232 9f3d 22b3 773d a1c5 1abc
000001d0: 546f c6bd 8cd7 89bd e0ca 583c 7753 cdb9
000001e0: b699 35bd 983d 8f3d 0c1d fb3d b2d4 25bd
000001f0: 7e53 953d 94aa 7e3d 79fd 42bd 15d0 bfbd
00000200: 780e 1b3d b888 f93d aab6 fa3d 8a56 c33d
00000210: 4e45 a33d 7091 103d 6e70 d73d 5efd d73d
00000220: b81d f2bc 807d 2b3b c8cd 143d 54eb 18bd
00000230: 3844 dcbd 804f c83d 2413 5f3d 9c4d d73d
00000240: 0c58 47bd dc7f 0bbd 4c70 08bd e6bb f23d
00000250: 50d7 b5bd 2c14 733d 3040 b53d 68c8 b1bd
00000260: d02b 7a3d 7c5d 023d 0a8a da3d 7069 4a3d
00000270: d831 febd 9a29 e63d 08f4 413d c894 383d
00000280: 803c c8bd b4aa ddbd 4cfa c43d e0a6 bf3b
00000290: 9829 913d 6015 e93d 0096 42bd 804b cdbb
000002a0: 7041 db3d b04f 0a3d 1665 e83d 9844 f4bc
000002b0: 80f3 de3c 78ea 643d 9485 073d 7816 9d3c
000002c0: d275 883d 4c42 6abd c024 0bbd 76d2 c2bd
000002d0: 68bd dfbc 1e81 983d 0085 13bc a0f6 9e3c
000002e0: b0ac 16bc b06a 9dbc 208d a2bc 54aa 74bd
000002f0: 4c6e e73d 0ab1 823d 7ad9 9d3d 9e86 c1bd
00000300: 648f a5bb ad5a b7bd e58c c93d a0c7 c9bd
00000310: f41b 913d a829 523d 6394 2bbd b99c 063b
00000320: 08ab 50bd f249 fd3b 45d5 79bd 13c2 f83c
00000330: f6c5 eabb a0f6 07be 2cec cf3d 80a5 e5bd
00000340: b61d f43d 0d66 c73d a5ca 373d 33ac d6bd
00000350: d5d6 cabc 472d a7bc 646f dbbd 8006 acbb
00000360: 134e cdbc d966 f43d 7818 b8bc b408 bcbd
00000370: 3467 393d b7c9 a1bc 855a 6d3d 561e 34bc
00000380: 8ecd b53d 2869 42bb e391 ce3b f3b7 a1bd
00000390: 469b f6bd d215 5439 8e23 b4bb 57e8 0fbd
000003a0: edf7 5cbc ecd8 3bbd dbde 653c da53 3cbd
000003b0: 1c50 8c3d a379 8ebd c8df bc3d bff1 e1bd
000003c0: 8f81 f5bd 40ac 4c3b 8e66 c5bd 65d0 9c3d
000003d0: 64da f7bd a895 88bd 8cb5 733d 85a7 fdbd
000003e0: e10d febd 2590 563d 7a46 42bd d39d 6b3d
000003f0: 8f7b b8bd cd5e 6c3d 29cf 8e3c 0d1d c7bd

lstm.weight_hh_l0 f4 [256, 64]
0.101794235 0.027847448 -0.04602216 -0.074130915 0.016981155 -0.030744938 -0.045988396 0.022885745
-0.09495036 -0.014325389 -0.10835177 0.013653129 -0.11223981 -0.09921577 -0.039204225 0.046548203
-0.02306272 0.038255855 0.04911975 -0.06754325 0.072288275 -0.03172885 -0.042197175 -0.12155939
0.0919823 -0.078734 -0.011552229 0.10869375 0.057036884 -0.0361761 -0.060315236 -0.11419252
0.06369447 -0.086510025 0.027355507 -0.013659669 0.06593339 0.08490232 -0.003947776 -0.09551351
-0.043550715 0.08838211 0.08854369 -0.011353269 0.0718053 -0.05002861 0.099436045 -0.095884465
0.08380321 -0.010432693 0.002081572 -0.025564805 -0.10310034 -0.015041873 0.026540263 0.02427672
-0.036280338 -0.08734815 -0.01252923 0.02104952 0.039292976 0.0713525 0.09596161 0.097086504
-0.016573004 0.02422494 0.11447405 0.057428524 -0.04313758 0.05870773 0.12198983 -0.10892704
0.07469939 0.06779864 -0.03173624 -0.002670849 -0.12373008 0.13801788 -0.022971824 0.024005067
-0.030493826 -0.08909041 0.02808541 -0.013502255 0.0600466 -0.08960385 0.065110765 0.0061343545
0.10863758 -0.042912647 0.0023876044 -0.052464075 0.072411045 -0.032274455 -0.06605488 0.10358185
0.0849875 0.008457115 0.104982376 -0.06672104 0.09092848 -0.10532789 0.0051180897 0.12420836
0.011952434 0.045785576 -0.031099647 -0.05599366 -0.124534816 0.006733441 0.008085677 -0.048034593
0.07019925 -0.056115754 -0.023072638 0.08345345 0.10807845 0.12134977 -0.076767296 -0.0038425387
-0.094550855 0.112275876 0.04858683 -0.08125595 0.00338234 -0.090544805 -0.015897708 0.064075544
-0.020449564 -0.032154903 0.075678706 0.013030082 0.1121138 0.015769139 0.022902966 0.11061314
-0.10212265 -0.016612485 0.0060890913 -0.06955987 -0.015112534 0.11251512 0.080235556 0.06721981
0.09980118 0.04207766 0.045557037 0.069522336 -0.06039861 0.004604548 -0.09365165 -0.01554884
-0.06527062 0.095886126 0.065271035 -0.044793203 0.032998502 0.10579848 0.08923446 -0.040694535
0.050595865 -0.11566666 -0.05657971 0.0795075 0.04275313 -0.0885881 0.04894665 0.033308268
0.021504208 0.07023634 -0.016784504 -0.093513 -0.050814465 0.0072128177 -0.116393656 0.11954802
0.08383538 -0.015520051 -0.11101176 0.0046302676 -0.016284585 0.049453214 -0.054782018 0.01589553
0.124178156 0.057559848 0.012280315 0.0030632317 -0.016490012 0.103420764 -0.08724782 -0.008700982
0.0840785 -0.07225735 0.09766446 -0.05330741 0.119001016 -0.055004127 -0.122201025 0.08081673
-0.03251028 -0.042548656 0.050511554 0.028059497 0.106485516 -0.009183594 0.052927718 0.10772907
0.11036843 -0.03407976 0.07753062 0.065440476 0.058317125 0.01439201 -0.020247065 -0.0032471116
0.050286576 -0.05704163 -0.025398625 0.0059769303 -0.06118195 0.02955501 -0.04600568 0.043041572
-0.1096478 -0.086897396 -0.1144679 0.09188269 -0.092675485 0.06853098 -0.052576482 -0.018054048
0.103051044 -0.10003568 -0.058747485 0.003503427 0.11885759 0.014637943 0.063924566 0.13886379
-0.1007566 -0.00749131 -0.0024814517 -0.0019421428 0.07752357 -0.015991047 0.08983082 -0.036091715
0.13898504 0.10692226 0.07238916 -0.095934816 -0.019284993 -0.11727747 -0.082996145 -0.02866242
00000000: 7f79 d03d 5520 e43c bc81 3cbd f3d1 97bd
00000010: 101c 8b3c cfdc fbbc 545e 3cbd e37a bb3c
00000020: 5675 c2bd 09b5 6abc 88e7 ddbd 60b1 5f3c
00000030: fcdd e5bd a331 cbbd 9c94 20bd 54a9 3e3d
00000040: 08ee bcbc 2cb2 1c3d ca31 493d 1e54 8abd
00000050: e00b 943d 1cf6 01bd f2d6 2cbd 21f4 f8bd
00000060: 3761 bc3d 4b3f a1bd 8f45 3dbc d49a de3d
00000070: 829f 693d 642d 14bd 1c0d 77bd c5dd e9bd
00000080: 3f72 823d 2b2c b1bd a818 e03c cecc 5fbc
00000090: 1608 873d 44e1 ad3d 585c 81bb 969c c3bd
000000a0: 3c62 32bd ae01 b53d 6556 b53d 1003 3abc
000000b0: a80e 933d cdea 4cbd 20a5 cb3d 135f c4bd
000000c0: 04a1 ab3d e3ed 2abc fc6a 083b 486d d1bc
000000d0: 4526 d3bd 3072 76bc f76a d93c f9df c63c
000000e0: b19a 14bd 96e3 b2bd 6647 4dbc 0b70 ac3c
000000f0: acf1 203d 4221 923d 8587 c43d 4ad5 c63d
00000100: 1cc4 87bc 6273 c63c 5f71 ea3d 2c3a 6b3d
00000110: 08b1 30bd 8477 703d ced5 f93d 2415 dfbd
00000120: fefb 983d 03da 8a3d dcfd 01bd 6909 2fbb
00000130: 3266 fdbd 8f54 0d3e 682f bcbc 46a6 c43c
00000140: 30ce f9bc 0875 b6bd 6013 e63c 9038 5dbc
00000150: 6cf3 753d 3982 b7bd cb58 853d b202 c93b
00000160: 617d de3d 2cc5 2fbd 5b79 1c3b 92e4 56bd
00000170: 3e4c 943d 3832 04bd c847 87bd b922 d43d
00000180: ed0d ae3d b68f 0a3c 0001 d73d 0aa5 88bd
00000190: b638 ba3d 26b6 d7bd a6b5 a73b f460 fe3d
000001a0: 24d4 433c a889 3b3d b0c4 febc 9c59 65bd
000001b0: 1c0c ffbd 32a4 dc3b ca79 043c ecbf 44bd
000001c0: a0c4 8f3d a2d9 65bd d402 bdbc a4e9 aa3d
000001d0: 3c58 dd3d 3a86 f83d 2c38 9dbd 1ad3 7bbb
000001e0: e1a3 c1bd e5f0 e53d fc02 473d 8569 a6bd
000001f0: 40aa 5d3b 8e6f b9bd e93b 82bc 0a3a 833d
00000200: d885 a7bc dcb4 03bd 70fd 9a3d 207c 553c
00000210: ec9b e53d 482e 813c 009f bb3c 2489 e23d
00000220: ae25 d1bd e816 88bc 0087 c73b 6875 8ebd
00000230: 909a 77bc 546e e63d 8a52 a43d 8aaa 893d
00000240: 9064 cc3d a059 2c3d 049a 3a3d ba61 8e3d
00000250: 8864 77bd c0e1 963b 70cc bfbd 90c0 7ebc
00000260: 9aac 85bd f25f c43d d2ac 853d 1479 37bd
00000270: 7029 073d e0ac d83d 8ec0 b63d 50af 26bd
00000280: 9c3d 4f3d a4e2 ecbd 20c0 67bd d4d4 a23d
00000290: e81d 2f3d ae6d b5bd 487c 483d 406e 083d
000002a0: 9829 b03c 12d8 8f3d a87f 89bc be83 bfbd
000002b0: d422 50bd 8059 ec3b cc5f eebd 98d5 f43d
000002c0: e2b1 ab3d d047 7ebc 225a e3bd 80b9 973b
000002d0: 4067 85bc 748f 4a3d 1c63 60bd 5837 823c
000002e0: 1e51 fe3d e0c3 6b3d 6033 493c 80c0 483b
000002f0: 1016 87bc 44ce d33d fcae b2bd 908e 0ebc
00000300: 5931 ac3d a9fb 93bd 4e04 c83d df58 5abd
00000310: ceb6 f33d 024c 61bd 8844 fabd 3e83 a53d
00000320: 8029 05bd 8047 2ebd 34e5 4e3d 08dd e53c
00000330: 1415 da3d c976 16bc bcca 583d 0fa1 dc3d
00000340: d808 e23d 3897 0bbd 60c8 9e3d a805 863d
00000350: f0dd 6e3d 77cc 6b3c 2cdd a5bc 7ecd 54bb
00000360: 4cf9 4d3d 7ca4 69bd c710 d0bc 20da c33b
00000370: ed99 7abd 591d f23c 7470 3cbd 5c4c 303d
00000380: 078f e0bd 43f7 b1bd 256e eabd fe2c bc3d
00000390: a5cc bdbd f859 8c3d 705a 57bd 15e6 93bc
000003a0: 6d0c d33d 82df ccbd 34a1 70bd c099 653b
000003b0: 9c6b f33d fcd3 6f3c e2ea 823d 4f32 0e3e
000003c0: 7a59 cebd aa79 f5bb da9f 22bb 808f feba
000003d0: adc4 9e3d a8ff 82bc 39f9 b73d e8d4 13bd
000003e0: 1852 0e3e 0ffa da3d c540 943d 7979 c4bd
000003f0: 90fb 9dbc 2c2f f0bd e2f9 a9bd 74cd eabc

lstm.bias_ih_l0 f4 [256]
-0.08478908 0.019527739 -0.061910495 -0.04184587 0.060683757 0.016402781 -0.116261244 0.058723107
-0.054716587 0.12184656 -0.11889584 -0.1148188 -0.0890438 -0.057895437 -0.086139634 -0.026502185
0.07724027 0.03304872 -0.10039884 -0.061784446 0.10601078 0.0723858 0.072300114 0.01732798
0.00019994931 0.05919081 0.0681519 -0.0493545 -0.060474966 -0.04433637 0.027150169 0.04842977
0.041155815 0.114673115 -0.11853963 0.05313085 0.066531524 -0.048408348 -0.08721195 0.0031773578
0.050845914 -0.09964621 0.02009657 -0.12309415 0.04828009 -0.08301118 0.073553644 0.106945276
-0.08511378 -0.06416952 0.11664174 0.024288595 -0.06761678 0.036449775 0.043530963 -0.016699156
0.05416182 0.02587889 -0.061276957 -0.067338645 -0.024512112 -0.066495284 0.047143694 -0.090094596
-0.118465364 0.004543698 -0.05768175 0.10388859 0.091044486 -0.05349849 -0.08132604 0.12761126
0.051348522 0.038524583 0.037387833 0.04403077 0.12403911 0.0013785919 0.075761154 0.042590097
0.10376203 0.12212649 -0.12262514 0.0038567632 -0.0037577748 0.1272015 0.015130699 -0.041695982
0.09496334 0.0059269397 -0.084651455 -0.040470555 -0.08175027 0.06858572 -0.115142375 0.13364884
-0.073941715 0.04958369 -0.090224385 0.04437417 0.078682385 -0.058052067 -0.01560252 0.075788155
-0.018015567 0.11544989 -0.03346561 -0.016624289 -0.11870423 0.075412266 0.018870413 -0.043820754
0.00300242 -0.07939908 0.014560282 -0.10528442 -0.050849706 0.051945046 -0.012710427 0.06668324
0.098246925 -0.02846229 -0.09553016 -0.09958857 0.07995452 0.10280204 -0.10169631 -0.022637421
0.042593017 0.070325226 -0.044663068 -0.10650097 0.065237164 0.035820216 0.038500488 0.08714597
0.069950104 -0.05723073 -0.090703964 0.08592379 -0.05982499 0.0956627 -0.035384208 -0.05973914
0.08369827 -0.044481486 0.06699317 0.11494827 -0.07959589 0.108964704 -0.00084394217 0.11190884
-0.056080952 -0.13414596 0.026692122 0.08419171 0.057218686 -0.10991317 -0.081096664 0.116472684
0.032985333 0.109882936 0.05342559 0.08948597 0.097380534 -0.044981103 0.09685342 -0.110737815
-0.018250346 0.12323184 -0.032889083 0.075429216 0.0954441 -0.020182163 -0.01511915 0.020318182
-0.04727079 -0.019867465 -0.09304446 -0.028880253 0.008373294 0.004787937 0.0050491956 0.09804486
-0.048691407 -0.060292453 -0.11427429 -0.028182967 0.09209053 0.105847314 -0.054477498 -0.11744249
-0.011109944 -0.046933882 0.11003786 0.030214524 0.015169962 -0.11724916 -0.121865496 -0.106339835
0.019833192 0.025919855 -0.10405539 -0.05870913 0.07242736 0.12859984 0.05351971 -1.1518598e-05
-0.112568095 -0.12463115 -0.08020483 -0.07439099 0.124044225 -0.101918496 0.03903611 -0.0022204693
0.09304038 0.04916521 0.086348675 0.09602512 -0.088181555 -0.037035003 0.10727857 -0.09445849
-0.017401854 0.010137921 0.06728785 -0.11753029 -0.104773104 0.0471205 0.06911213 -0.0948506
0.0744393 -0.10489033 0.08486669 -0.061694995 0.11487722 0.072112106 -0.08658729 0.06491317
-0.08011417 -0.0017760703 0.10986083 0.006183505 0.09823565 0.047451094 0.04154111 0.09343812
0.08472954 -0.061670065 -0.043649305 0.0466045 -0.09720123 -0.0747225 -0.019452516 0.010796517
00000000: e6a5 adbd a3f8 9f3c dc95 7dbd 9366 2bbd
00000010: 888f 783d 205f 863c 601a eebd a487 703d
00000020: 801e 60bd b08a f93d aa7f f3bd 1e26 ebbd
00000030: 995c b6bd c423 6dbd fa69 b0bd 1c1b d9bc
00000040: 2630 9e3d 185e 073d e89d cdbd b011 7dbd
00000050: 2e1c d93d 023f 943d 1512 943d 68f3 8d3c
00000060: 7ca9 5139 1072 723d 3993 8b3d f227 4abd
00000070: 99b4 77bd 0e9a 35bd 086a de3c 4b5e 463d
00000080: 0093 283d bdd9 ea3d e8c4 f2bd bc9f 593d
00000090: ae41 883d d547 46bd 2e9c b2bd 383b 503b
000000a0: ce43 503d 5013 ccbd 90a1 a43c c918 fcbd
000000b0: 58c1 453d c401 aabd 4ba3 963d 2006 db3d
000000c0: 2250 aebd 4f6b 83bd dde1 ee3d e0f8 c63c
000000d0: ab7a 8abd 5c4c 153d 864d 323d abcc 88bc
000000e0: c9d8 5d3d f7ff d33c 8cfd 7abd d8e8 89bd
000000f0: a0cd c8bc ae2e 88bd bf19 413d 8483 b8bd
00000100: f89d f2bd 4de3 943b b343 6cbd 8bc3 d43d
00000110: 8875 ba3d 3c21 5bbd 448e a6bd 87ac 023e
00000120: d452 523d f4cb 1d3d fc23 193d 9c59 343d
00000130: 3808 fe3d deb1 b43a aa28 9b3d f472 2e3d
00000140: 3081 d43d 741d fa3d e422 fbbd c0c1 7c3b
00000150: 0045 76bb 1c41 023e c0e6 773c 68c9 2abd
00000160: 247c c23d c636 c23b be5d adbd 74c4 25bd
00000170: b06c a7bd ac76 8c3d c4cf ebbd 3edb 083e
00000180: c16e 97bd 4418 4b3d 90c7 b8bd b1c1 353d
00000190: 3b24 a13d 01c8 6dbd b6a1 7fbc d236 9b3d
000001a0: 6295 93bc fe70 ec3d 3c13 09bd a92f 88bc
000001b0: 341b f3bd bf71 9a3d 2096 9a3c 647d 33bd
000001c0: 40c4 443b fc9b a2bd 408e 6e3c 5c9f d7bd
000001d0: c847 50bd 54c4 543d 653f 50bc 3991 883d
000001e0: af35 c93d c029 e9bc 51a5 c3bd 18f5 cbbd
000001f0: 32bf a33d e089 d23d 2846 d0bd 1d72 b9bc
00000200: 0476 2e3d ac06 903d 9ff0 36bd 2e1d dabd
00000210: 109b 853d 38b8 123d b0b2 1d3d 9679 b23d
00000220: 0042 8f3d c56a 6abd 00c3 b9bd d0f8 af3d
00000230: 0c0b 75bd ceea c33d 08ef 10bd 07b1 74bd
00000240: 006a ab3d 3832 36bd b733 893d 006a eb3d
00000250: 2c03 a3bd e328 df3d 003c 5dba 7630 e53d
00000260: 24b5 65bd 8f5d 09be 70a9 da3c b46c ac3d
00000270: 245e 6a3d 281a e1bd 0216 a6bd 3b89 ee3d
00000280: a11b 073d 4e0a e13d cbd4 5a3d 6c44 b73d
00000290: 726f c73d 1b3e 38bd 165b c63d 82ca e2bd
000002a0: c081 95bc fa60 fc3d b4b6 06bd a27a 9a3d
000002b0: 3278 c33d 1055 a5bc 50b6 77bc 5172 a63c
000002c0: 049f 41bd 18c1 a2bc 188e bebd 4896 ecbc
000002d0: 2430 093c 20e4 9c3b b973 a53b becb c83d
000002e0: a470 47bd 38f5 76bd a408 eabd f7df e6bc
000002f0: f699 bc3d 7ac6 d83d cc23 5fbd b085 f0bd
00000300: 7c06 36bc be3d 40bd 885b e13d 7384 f73c
00000310: 6f8b 783c 5420 f0bd 9e94 f9bd b3c8 d9bd
00000320: 3879 a23c e055 d43c fe1a d5bd fc78 70bd
00000330: cc54 943d adaf 033e 7c37 5b3d 0040 41b7
00000340: 1a8a e6bd 9e3e ffbd 6e42 a4bd 4e5a 98bd
00000350: e60a fe3d a5ba d0bd 54e4 1f3d 4b85 11bb
00000360: f48b be3d 7661 493d 93d7 b03d d1a8 c43d
00000370: 8898 b4bd 04b2 17bd deb4 db3d 7473 c1bd
00000380: 558e 8ebc 8619 263c 36ce 893d b8b3 f0bd
00000390: 4893 d6bd 6d01 413d a98a 8d3d 0841 c2bd
000003a0: a273 983d bed0 d6bd 96ce ad3d e4b3 7cbd
000003b0: bf44 eb3d 83af 933d ad54 b1bd 32f1 843d
000003c0: e612 a4bd 08cb e8ba b7fe e03d 009f ca3b
000003d0: c62f c93d 145c 423d 0327 2a3d 7c5c bf3d
000003e0: ae86 ad3d c099 7cbd 9dc9 32bd 5ce4 3e3d
000003f0: 7011 c7bd 1c08 99bd e25a 9fbc e0e3 303c

lstm.bias_hh_l0 f4 [256]
0.046248093 -0.009046274 -0.021568283 0.06713628 0.042194396 -0.06003821 -0.06639999 -0.07942452
-0.043657646 0.032821923 -0.08337401 -0.058487862 -0.091430046 0.1057152 -0.067641675 -0.11206951
-0.08883566 0.06881131 0.0322634 0.01158604 0.09125306 -0.07045786 0.082069576 0.05740197
0.10895369 -0.10389008 0.020772276 -0.051851235 0.039189134 -0.08098539 -0.019030616 -0.0778103
0.07592865 0.10184718 0.07141307 0.09229265 0.029041888 -0.113773786 0.10825758 0.07072124
0.0054569654 -0.08882944 0.048002258 0.046482995 -0.10547598 -0.12211392 0.090662055 0.0019240277
0.07736823 -0.08054022 -0.09711919 -0.030327767 -0.10320804 0.018526748 -0.0056380294 0.11701321
0.026648626 -0.059011735 -0.11370246 0.07006664 0.100648284 -0.087880015 -0.08293383 0.108154535
0.06918438 -0.06490396 0.03375927 -0.0990045 -0.015056908 -0.092393175 -0.09775673 0.026416697
-0.016388386 -0.11379528 0.06719825 -0.021819025 0.10432047 -0.028099153 0.032606483 0.012715082
0.02622892 0.021110013 -0.08538371 -0.08160123 0.10349804 -0.048597496 -0.049782455 -0.09547828
-0.058098987 -0.07230935 0.06317069 0.0057206303 -0.088018715 0.092299044 -0.091513515 0.01801671
0.076298214 0.120282605 -0.09795028 -0.011671533 -0.06630183 -0.073493786 0.11522781 -0.015402734
-0.070974424 0.06412014 -0.081581175 0.019331915 0.11535084 -0.01214589 0.10775505 0.075776786
0.0914907 -0.0023707151 0.11151542 -0.0083467215 -0.10087192 -0.1047229 0.0015680484 -0.032536916
-0.05162521 -0.07685791 -0.076047145 0.10607608 -0.029461205 0.06536518 0.012681067 -0.124218255
-0.028575525 0.036784247 0.1038384 -0.08370282 -0.046952814 0.004806105 -0.12130675 0.03732182
-0.0027060658 -0.050571535 -0.06653845 0.015099834 -0.121568546 0.06939933 -0.04149425 0.0018335185
-0.115558416 0.08009377 0.09533215 0.109684736 -0.04612723 -0.036531992 -0.104589954 0.060090065
-0.00846909 -0.007404487 0.08443259 0.028586537 -0.0126727475 0.027108878 0.0059015304 0.0585844
-0.1252798 -0.104745165 -0.036372174 0.02281043 -0.034569368 -0.017356502 -0.11384696 0.10399456
0.024322748 -0.0486449 -0.0040308386 0.12260446 0.051321372 -0.0088258535 -0.09551696 -0.10688125
0.020667493 0.071157336 0.09846458 0.073575765 -0.10576942 -0.07261729 -0.105542146 -0.016987685
0.0046402034 0.10320571 0.04044132 -0.08402372 0.08684005 -0.05275175 0.024689957 0.0075652897
0.03283817 -0.028381092 -0.06767692 0.037150875 0.1019443 0.05094648 0.01046215 0.12178584
0.062905505 -0.05010902 -0.122195706 0.08695448 -0.071265176 -0.074030556 -0.12271996 0.10322966
-0.018723488 0.0256785 0.050627477 -0.009126529 0.080510065 -0.10625323 0.05959005 0.0069664554
0.022272054 0.09922092 0.08375878 0.044661526 0.09046893 0.05770564 0.06878087 -0.023017237
0.052591864 0.039736494 0.0070847888 -0.020137697 -0.03988359 0.07961199 0.07428975 -0.0889032
-0.036209542 -0.069613144 0.01817863 -0.075941056 0.028502 0.031461906 -0.070873894 -0.097550794
-0.06431046 0.10812227 0.0894186 0.0916968 0.12432434 -0.060419753 0.063444406 0.08212164
0.024035156 0.07917457 -0.051635068 -0.07590967 0.079551935 -0.0205729 -0.13590333 0.0050289184
00000000: a46e 3d3d d336 14bc f8af b0bc bf7e 893d
00000010: 08d4 2c3d a0ea 75bd b8fc 87bd 53a9 a2bd
00000020: 5cd2 32bd 4870 063d febf aabd f890 6fbd
00000030: ad3f bbbd 3681 d83d b887 8abd b384 e5bd
00000040: 78ef b5bd f2ec 8c3d a026 043d 60d3 3d3c
00000050: e2e2 ba3d 364c 90bd 1814 a83d 541e 6b3d
00000060: 1d23 df3d 52c4 d4bd 9f2a aa3c f661 54bd
00000070: c984 203d abdb a5bd 18e6 9bbc 025b 9fbd
00000080: 7b80 9b3d 4195 d03d 0441 923d ee03 bd3d
00000090: 41e9 ed3c 3b02 e9bd 26b6 dd3d 4cd6 903d
000000a0: 58d0 b23b 36ec b5bd 049e 443d f464 3e3d
000000b0: ca03 d8bd dd16 fabd 07ad b93d a82f fc3a
000000c0: 3c73 9e3d 45f2 a4bd 6de6 c6bd f071 f8bc
000000d0: bd5e d3bd 68c5 973c 38bf b8bb 9fa4 ef3d
000000e0: 384e da3c 4ab6 71bd d6dc e8bd 197f 8f3d
000000f0: b020 ce3d 70fa b3bd 36d9 a9bd 2080 dd3d
00000100: 8ab0 8d3d 5eec 84bd 2947 0a3d dfc2 cabd
00000110: 40b1 76bc a238 bdbd ae34 c8bd d467 d83c
00000120: f040 86bc 800d e9bd 3c9f 893d d0bd b2bc
00000130: f8a5 d53d 3230 e6bc 608e 053d eb52 503c
00000140: 08de d63c e8ee ac3c a8dd aebd 8c1e a7bd
00000150: c8f6 d33d 2b0e 47bd b0e8 4bbd 1e8a c3bd
00000160: 34f9 6dbd ed16 94bd a25f 813d 2074 bb3b
00000170: 2843 b4bd 4807 bd3d 706b bbbd c897 933c
00000180: 3d42 9c3d ba56 f63d 289a c8bd f539 3fbc
00000190: 41c9 87bd e983 96bd 8ffc eb3d c05b 7cbc
000001a0: 0a5b 91bd 6c51 833d 0814 a7bd f75d 9e3c
000001b0: 103d ec3d 8eff 46bc aeae dc3d dc30 9b3d
000001c0: 7a5f bb3d 005e 1bbb 3262 e43d b0c0 08bc
000001d0: f095 cebd f678 d6bd f986 cd3a 6e45 05bd
000001e0: f574 53bd ae67 9dbd 9bbe 9bbd 6a3e d93d
000001f0: a058 f1bc 2ede 853d 40c4 4f3c 2466 febd
00000200: 3817 eabc 14ab 163d 3aa9 d43d 626c abbd
00000210: 9851 40bd 887c 9d3b ac6f f8bd c4de 183d
00000220: 4058 31bb 1924 4fbd 5045 88bd 4b65 773c
00000230: eef8 f8bd 3c21 8e3d e0f5 29bd ac52 f03a
00000240: e4a9 ecbd 3408 a43d 813d c33d 64a2 e03d
00000250: e8ef 3cbd 92a2 15bd 4233 d6bd 0021 763d
00000260: f0c1 0abc 57a1 f2bb feea ac3d 502e ea3c
00000270: 5ba1 4fbc 7013 de3c a061 c13b 32f6 6f3d
00000280: 5949 00be a284 d6bd fdfa 14bd f0dc ba3c
00000290: 9c98 0dbd 392f 8ebc 9828 e9bd 1afb d43d
000002a0: 8040 c73c e03f 47bd 2015 84bb 0c18 fb3d
000002b0: 5c36 523d 509a 10bc 659e c3bd 8fe4 dabd
000002c0: e04e a93c f0ba 913d cca7 c93d e4ae 963d
000002d0: a39d d8bd 60b8 94bd 7b26 d8bd c229 8bbc
000002e0: d90c 983b 845d d33d cca5 253d a114 acbd
000002f0: 32d9 b13d 3812 58bd 9842 ca3c 40e6 f73b
00000300: 5181 063d 777f e8bc 329a 8abd 842b 183d
00000310: 2cc8 d03d 42ad 503d 7069 2b3c db6a f93d
00000320: 9ad4 803d 1e3f 4dbd be41 fabd 3115 b23d
00000330: 7af3 91bd 559d 97bd 9a54 fbbd 126a d33d
00000340: 0062 99bc b85b d23c c25e 4f3d 7087 15bc
00000350: 76e2 a43d 4b9b d9bd b214 743d dd46 e43b
00000360: e273 b63c 5634 cb3d b989 ab3d 01ef 363d
00000370: c647 b93d c05c 6c3d fcdc 8c3d a58e bcbc
00000380: 916a 573d bcc2 223d 8427 e83b d0f7 a4bc
00000390: fa5c 23bd 9c0b a33d 3925 983d e212 b6bd
000003a0: 7550 14bd 5691 8ebd 5aeb 943c fc86 9bbd
000003b0: 077d e93c 33de 003d 5526 91bd b6c8 c7bd
000003c0: 34b5 83bd 356f dd3d 1921 b73d 88cb bb3d
000003d0: c29d fe3d b47a 77bd 24ef 813d 642f a83d
000003e0: 60e5 c43c 4726 a23d 4b7f 53bd 8776 9bbd
000003f0: 20ec a23d 8088 a8bc 3e2a 0bbe a0c9 a43b

fc.weight f4 [18, 64]
0.11329018 -0.20203742 0.1862673 -0.021248905 0.09583367 -0.07063419 0.049432576 -0.08750571
-0.08714506 0.15536186 0.057911143 0.10772042 -0.04255584 0.005065649 0.031558707 -0.023113018
0.11198212 0.033758357 -0.044622626 0.05824244 0.023823023 -0.114893265 0.17817777 0.17293476
-0.004971495 -0.07548549 -0.23158221 0.02562251 0.19732691 0.05985498 0.024698406 -0.08133817
-0.16245562 0.17681324 0.10184388 0.1356938 -0.16576841 0.09501329 -0.21948771 -0.042254362
0.07083939 0.06360167 -0.04848863 0.0034832112 -0.08524229 0.08448357 0.08190623 -0.036058325
0.04603982 -0.15301156 -0.059167594 0.105328634 -0.22478849 0.11519571 0.20977367 -0.039972622
-0.18879695 0.09534107 -0.003542433 -0.12797242 0.06131178 0.043900013 -0.0008151785 0.15806581
0.18348835 -0.10525818 0.08232511 -0.017819656 0.0470204 -0.14470525 -0.111275345 -0.21032709
0.07583828 -0.010634951 -0.05686745 0.06644306 0.08055329 -0.019644711 -0.03788811 0.07966455
0.047114626 0.114813805 -0.045689985 0.046430618 -0.08371453 0.010379055 0.005963421 -0.047104176
0.0072549796 -0.025534913 -0.18578304 0.08752933 0.028661683 -0.059700865 -0.08170764 -0.05511061
-0.028035708 0.17252278 0.06752983 0.21765888 -0.112050444 0.079007044 -0.07893386 0.03464486
0.22774443 0.042518094 -0.052131552 0.1178192 -0.065662496 0.16239277 0.15253048 -0.081984386
-0.0026111454 -0.11698144 -0.054808468 0.086183384 -0.084376976 -0.103768215 -0.032389354 -0.026915567
-0.121263735 0.21582069 -0.15736988 -0.2232397 -0.026121989 0.0317342 -0.00800626 0.13753743
0.14685424 0.017713249 0.0155904805 0.029278299 0.092853256 -0.10634235 0.11739457 -0.19631319
-0.03913158 0.15008229 0.07266161 0.007157556 0.008167204 0.05019266 -0.034934998 0.11632544
0.059087783 0.10910855 -0.10419113 -0.06623186 -0.018066615 0.004314911 0.111487344 0.111629546
0.062182847 -0.20881402 -0.22366047 -0.093186215 0.1881205 0.09931238 -0.06299859 -0.16039358
-0.13197929 0.112938955 -0.07280249 0.22484666 -0.10395664 -0.027983949 0.0022044121 0.0069910004
0.07373523 0.016668662 -0.0025540465 -0.040566035 -0.06343439 0.138414 -0.00018369872 -0.121069506
-0.0652432 -0.19343461 -0.09570516 -0.019437894 -0.15324567 -0.11566116 -0.003926391 -0.21271938
-0.004402261 0.10476044 -0.20359106 -0.21889392 -0.09588714 0.057897925 -0.097019486 0.08211622
0.17185502 -0.06603962 0.16636121 0.03641363 0.04897107 -0.054974504 0.03515704 -0.16693026
0.10708211 0.076364845 -0.0552191 -0.08571516 -0.08007489 0.11307551 0.073687226 0.09085084
-0.012776047 -0.1047325 -0.011399686 -0.08403252 -0.10575567 -0.08764598 0.07374344 -0.003530563
0.20798233 -0.17731027 -0.018463777 0.058018487 0.06605336 0.051247254 -0.049064234 -0.047330376
-0.13358979 0.16088958 0.08525641 0.116537936 -0.012556541 0.042054743 -0.20953655 -0.10400093
0.09268893 -0.10091074 0.16698274 0.10061798 -0.19484717 0.11822122 -0.01562959 0.025577536
-0.042485908 -0.21011843 -0.13301554 -0.11496934 -0.016555361 -0.073225126 0.0802746 -0.019639036
-0.15029646 0.07371618 -0.19690098 -0.1734753 -0.115224674 0.030245155 -0.12373944 0.114444636
00000000: af04 e83d e6e2 4ebe dbbc 3e3e 2f12 aebc
00000010: 7144 c43d a9a8 90bd d079 4a3d 3236 b3bd
00000020: 1c79 b2bd 2e17 1f3e 3c34 6d3d 869c dc3d
00000030: 084f 2ebd befd a53b b443 013d 8357 bdbc
00000040: e256 e53d 3446 0a3d 37c6 36bd a08f 6e3d
00000050: 8028 c33c 294d ebbd 3c74 363e cf15 313e
00000060: ece7 a2bb 2398 9abd e323 6dbe 4ce6 d13c
00000070: 1110 4a3e 7f2a 753d 5054 ca3c a094 a6bd
00000080: c45a 26be 880e 353e 8693 d03d 51f3 0a3e
00000090: 32bf 29be 5496 c23d 63c1 60be e912 2dbd
000000a0: 3e14 913d 9841 823d 049c 46bd 9646 643b
000000b0: 8293 aebd b905 ad3d 74be a73d e5b1 13bd
000000c0: 4094 3c3d 10af 1cbe b859 72bd 8ab6 d73d
000000d0: f42e 66be baeb eb3d e9ce 563e 55ba 23bd
000000e0: fd53 41be 2e42 c33d 2a28 68bb 340b 03be
000000f0: 1022 7b3d 80d0 333d b4b1 55ba 01dc 213e
00000100: 5fe4 3b3e 9a91 d7bd 119a a83d 87fa 91bc
00000110: 7798 403d 9d2d 14be 54e4 e3bd fc5f 57be
00000120: 1a51 9b3d 383e 2ebc d8ed 68bd 4d13 883d
00000130: 20f9 a43d f2ed a0bc 9030 1bbd 2b27 a33d
00000140: 44fb 403d 8023 eb3d 6c25 3bbd 082e 3e3d
00000150: 8672 abbd e90c 2a3c cd68 c33b 4ff0 40bd
00000160: 2ebb ed3b 982e d1bc e93d 3ebe 9442 b33d
00000170: e8cb ea3c e588 74bd 5656 a7bd aabb 61bd
00000180: 24ab e5bc d0a9 303e 144d 8a3d f8e1 5e3e
00000190: b47a e5bd 72ce a13d 13a8 a1bd c5e7 0d3d
000001a0: d635 693e 7427 2e3d e587 55bd 314b f13d
000001b0: 0f7a 86bd 4a4a 263e f330 1c3e 6ee7 a7bd
000001c0: c01f 2bbb f793 efbd d87e 60bd ea80 b03d
000001d0: d6cd acbd 6e84 d4bd b3aa 04bd 097e dcbc
000001e0: 1f59 f8bd 1900 5d3e 9225 21be f398 64be
000001f0: c8fd d5bc b8fb 013d b02c 03bc 9dd6 0c3e
00000200: f560 163e 601b 913c 376f 7f3c 0bd9 ef3c
00000210: d929 be3d 05ca d9bd 906c f03d 5306 49be
00000220: 7048 20bd 2caf 193e 9ccf 943d ee89 ea3b
00000230: bdcf 053c d296 4d3d 0018 0fbd 083c ee3d
00000240: 0806 723d 4e74 df3d 2962 d5bd 92a4 87bd
00000250: 7000 94bc 1964 8d3b 7a53 e43d 089e e43d
00000260: 71b3 7e3d 58d3 55be 4007 65be 6ad8 bebd
00000270: a9a2 403e 4a64 cb3d 6805 81bd 373e 24be
00000280: 9425 07be 8a4c e73d 7919 95bd 343e 663e
00000290: 38e7 d4bd 983e e5bc e677 103b c314 e53b
000002a0: 7f02 973d b88c 883c ca61 27bb 9228 26bd
000002b0: e4e9 81bd 66bc 0d3e 409f 40b9 4af3 f7bd
000002c0: 3a9e 85bd b913 46be 1101 c4bd 383c 9fbc
000002d0: 6fec 1cbe c2df ecbd f4a8 80bb 1cd3 59be
000002e0: d840 90bb a48c d63d 2d7a 50be ba25 60be
000002f0: 7a60 c4bd 6026 6d3d 27b2 c6bd 8c2c a83d
00000300: c3fa 2f3e c83f 87bd 985a 2a3e 7526 153d
00000310: e495 483d f22c 61bd d400 103d c4ef 2abe
00000320: de4d db3d 2c65 9c3d 6c2d 62bd 6e8b afbd
00000330: 4efe a3bd 2294 e73d 54e9 963d 0110 ba3d
00000340: a052 51bc fe7d d6bd c0c5 3abc 3e19 acbd
00000350: 6e96 d8bd bc7f b3bd cd06 973d 0561 67bb
00000360: 52f9 543e d390 35be 5941 97bc cba4 6d3d
00000370: fc46 873d a4e8 513d 94f7 48bd 7fdd 41bd
00000380: c3cb 08be 3dc0 243e ea9a ae3d 71ab ee3d
00000390: f3b9 4dbc 9841 2c3d c090 56be 71fe d4bd
000003a0: b2d3 bd3d 4aaa cebd 86fd 2a3e cd10 ce3d
000003b0: 0486 47be f81d f23d a009 80bc fb87 d13c
000003c0: b405 2ebd 4929 57be 3a35 08be 0c75 ebbd
000003d0: 1c9f 87bc 0ef7 95bd 0267 a43d 0be2 a0bc
000003e0: 51e7 19be 82f8 963d 69a0 49be 82a3 31be
000003f0: eafa ebbd b0c4 f73c 1b6b fdbd f361 ea3d

fc.bias f4 [18]
0.19382027 -0.0076450836 0.07079444 -0.01708565 0.18230839 -0.01747633 0.09648269 -0.03430494
-0.040750016 0.04155644 0.12640777 0.07541196 -0.0386757 0.024624547 0.104738325 0.046885677
0.10600465 -0.06406847
00000000: d278 463e 9c83 fabb adfc 903d 34f7 8bbc
00000010: 0daf 3a3e 852a 8fbc b798 c53d 5683 0cbd
00000020: 7de9 26bd 1637 2a3d 0a71 013e 9671 9a3d
00000030: 696a 1ebd 6bb9 c93c 0c81 d63d 320b 403d
00000040: f718 d93d 5436 83bd
