radflux_realtime_lstm/best_radflux_model.pt (torch, 159719 bytes, 8 tensors)

conv1.weight f4 [64, 10, 7]
000000 33 82 f3 bd 7e 55 5d 3c ff f9 4d bc 38 16 f8 bd
       -0.11890068 0.013509152 -0.012571811 -0.12113613
000010 24 98 89 3c 36 14 00 3d 37 84 bf bd 18 45 53 bc
       0.01679618 0.031269275 -0.0935139 -0.012894891
000020 16 55 e7 bc 76 f2 d8 3d d9 28 bd 3d 61 b2 0f 3d
       -0.028238814 0.10593121 0.09236307 0.035082225
000030 a1 37 b1 bd 5a a5 dc 3d fd 01 92 3d d4 d4 cd bd
       -0.086531885 0.10773726 0.071292855 -0.10050359
000040 fd 64 ab 3d d8 f8 cb 3b 8d 9e 00 3d 36 36 ce bc
       0.08368871 0.006224733 0.031401206 -0.025172334
000050 a8 6d 5e bd aa c9 c4 bb 5a ba d6 bd b7 c7 c7 bd
       -0.054303795 -0.0060054855 -0.104847625 -0.097548895
000060 34 d7 a4 bd c3 26 50 bd 08 51 33 bc 5c 73 a2 bd
       -0.08048859 -0.050818216 -0.010944612 -0.07932159
000070 45 96 94 bd d0 60 9e 3d 66 2a ce bd 6d ac 0d 3d
       -0.07255224 0.07733309 -0.100666806 0.034588266
000080 93 c5 15 3d dd 40 3b bc 08 a0 fb bd c5 5f 91 bd
       0.036565375 -0.011429039 -0.12286383 -0.07098345
000090 20 c7 4d 3d 36 e6 f9 3b 21 a0 32 bd 5e 4e 47 3d
       0.05023873 0.0076263202 -0.043609742 0.04865872
0000a0 d7 11 8a bc 9e 7b 87 3d 09 34 7f bd 8d cd 6d bd
       -0.01685421 0.06615375 -0.062305484 -0.058057357
0000b0 6c 75 00 bd 1a 2e 92 3d c7 49 de bd e8 ae 03 bd
       -0.031361982 0.071376994 -0.10853916 -0.032149225
0000c0 d3 54 c0 3d d1 4c 70 bd 63 0c c6 3d ed 6e 65 bd
       0.09391179 -0.058667008 0.09670331 -0.05601399
0000d0 20 f3 e5 bd 65 b8 1a 3d 86 5a bf 3c 28 de 92 bd
       -0.11228013 0.03777351 0.023358595 -0.07171279
0000e0 08 cd 6d bd 5d 33 2d bd d1 ba 95 3d 94 0a 69 bd
       -0.05805686 -0.042285312 0.07311023 -0.056894854
0000f0 e9 f2 a1 bd ac a0 bc 3d 5c 91 8c 3d c0 0d a7 3d
       -0.079076596 0.09210333 0.068636626 0.081569195
000100 35 84 b9 3d b7 c8 c1 3c 7a 7a bc bd 9d c4 02 39
       0.090584196 0.023655279 -0.09203048 0.0001247101
000110 b9 e0 8e 3c a2 7c 11 bd d7 91 ef bc 55 67 f0 3d
       0.01744114 -0.03551925 -0.029244347 0.11738459
000120 bb f0 93 bd a0 94 6c 39 95 b9 9c bc fe a6 b8 3c
       -0.0722365 0.00022562081 -0.019131461 0.022540566
000130 e8 24 64 3c 6b 5a e7 3d e3 b6 f0 3d d5 f4 47 bc
       0.013924815 0.11296543 0.11753633 -0.012204369
000140 df 96 15 bd fa 1d a5 bc 05 8b 80 bd 77 f2 ff bc
       -0.036520835 -0.020155896 -0.06276516 -0.031243546
000150 7b 15 a6 bc 39 28 f3 3c cd 59 e3 bd 0e 06 6e bd
       -0.020273915 0.029682266 -0.111011125 -0.058111243
000160 a4 a8 7a bd d5 61 4b 3c bf ed 9c bd a9 24 b0 bd
       -0.061195984 0.012413462 -0.07662534 -0.08600742
000170 e9 b8 c8 3b af 7c 07 3d 26 d0 94 bd 6c 4e ec bd
       0.0061255586 0.033077892 -0.07266264 -0.11538395
000180 9c 0a 5a bd 72 24 cc bd d1 1a 14 bd 99 71 bd bc
       -0.053232774 -0.09967889 -0.036158387 -0.023125457
000190 5b f9 ea bd e2 fe 8f bd f6 95 07 bd 89 0b 7c bd
       -0.11473342 -0.07031037 -0.033102 -0.06153444
0001a0 eb 74 b0 bd 1c 61 ba 3d 35 8d 7d bd b1 27 99 bd
       -0.0861605 0.091005534 -0.061902244 -0.07478274
0001b0 2e c9 65 3d 75 d9 e3 bd 75 ed 7a 3d 06 51 e1 3d
       0.056100063 -0.11125461 0.061261613 0.11001782
0001c0 10 92 a7 bd 5d f8 84 bd da 29 9c 3d 83 10 c4 3d
       -0.08182156 -0.06492684 0.0762517 0.09573462
0001d0 24 db ce 3d a8 40 79 3d 69 c7 32 3d ae d8 45 3d
       0.101003915 0.060852677 0.043647204 0.048302345
0001e0 c0 a4 68 bc f4 9f 3c bb a7 50 6e bc 12 77 ba bd
       -0.014199436 -0.0028781863 -0.014545596 -0.09104742
0001f0 23 3a 78 bd e9 08 ae bd e9 42 4d 3c fd 13 dd bd
       -0.06060232 -0.08497793 0.01252816 -0.10794828
000200 d1 95 cb bd ea 34 cd bd eb 8c 9e bd 0c 42 a6 3d
       -0.099406846 -0.10019858 -0.07741722 0.08118066
000210 90 18 ea 3d e4 e8 ca 3d fa 13 90 3d f8 54 32 bd
       0.11430466 0.099077016 0.0703506 -0.043538064
000220 37 31 50 3d 24 84 80 3d d8 cb ce 3c a0 95 6c bd
       0.050828185 0.06275204 0.025243685 -0.05775988
000230 82 65 ca bd 34 9b a6 bd 15 8d 2b bd bb 36 f8 3d
       -0.09882642 -0.081350714 -0.041882593 0.12119814
000240 f9 60 1a 3d 59 5a be 3d 81 9c 83 bd c5 a1 a6 bd
       0.037690137 0.09294576 -0.06426335 -0.08136324
000250 68 bd 94 bd 8f 4f 5c 3d 77 d1 b9 bb 5a dd d5 3d
       -0.07262689 0.05378681 -0.005670722 0.1044261
000260 76 43 bb 3d 66 21 4c 3d b9 f7 e0 3d 55 43 21 bd
       0.091437265 0.04983654 0.10984749 -0.039370853
000270 0a af 07 bc bf 38 b1 bd 16 59 9d bb f5 ef c5 bd
       -0.008281479 -0.086534016 -0.0048018796 -0.09664909
000280 3b 5b 1c bd 36 7c 02 bd b6 0c c1 bd 5e 39 95 bc
       -0.03817294 -0.031856738 -0.094262525 -0.018215831
000290 20 88 93 3d c0 36 02 3d ec cf 3d 3d 03 3f 1a bc
       0.07203698 0.031790495 0.046340868 -0.009414437
0002a0 ca 6f 78 3a ef 24 7f 3d ac 6a cc 3d b1 89 be 3d
       0.0009477107 0.062291082 0.099812835 0.09303606
0002b0 ee 02 31 bb 93 68 30 bd 5f 8c 90 bd 06 98 e6 3c
       -0.0027009803 -0.04306848 -0.07058024 0.028148662
0002c0 03 63 9f bd 42 12 99 bd eb b1 db 3d 88 97 c5 bd
       -0.07782557 -0.074741855 0.107272945 -0.09648043
0002d0 74 e1 b2 3d 7e 42 75 3c 5a c0 88 bd 95 05 17 3d
       0.08734408 0.014969466 -0.06677313 0.036870558
0002e0 2a 24 9d 3d 1b 0d 9d 3d 4d de ac bd 34 9b 94 bd
       0.07672913 0.07668515 -0.08440838 -0.07256165
0002f0 58 5f cb bc 8d 9d a8 3d b7 e5 e4 3d 37 f2 d1 3d
       -0.024825737 0.082331754 0.11176627 0.10251277
000300 58 87 fa bc 51 c3 2b bc 90 14 56 3d f5 9c 5f 3c
       -0.030582115 -0.010483579 0.052265704 0.013648261
000310 19 9e c9 bd 37 79 2a bd 40 8b 79 3d d0 09 1a 3d
       -0.09844608 -0.041619506 0.060923815 0.037607014
000320 aa bd f8 3d 92 72 7a bc 0b b4 dc 3d a0 66 f9 3c
       0.121455505 -0.015286105 0.10776528 0.030444443
000330 25 d0 cc 3c 01 a8 05 3d 23 e6 42 bd 1f 92 56 bd
       0.025001595 0.032630924 -0.047582757 -0.052385446
000340 8d e9 d1 3d df e3 01 3e 10 41 20 bd 72 90 d8 3d
       0.102496244 0.12684582 -0.03912455 0.10574426
000350 e6 bc 2f bd 0a b8 a0 bd ba 9c b5 ba eb 92 a1 3d
       -0.042904757 -0.07847603 -0.0013855912 0.078893505
000360 9a e9 b3 bd c0 3b 85 bd d8 42 9a 3d 9a b7 c3 3c
       -0.0878479 -0.06505537 0.07532281 0.023891259
000370 35 93 7a bd 12 9f 9f bd c1 01 7d 3d b0 3c a7 3c
       -0.061175544 -0.07794012 0.06176925 0.02041468
000380 2e 8e f9 bd 14 a9 e4 bd 81 a8 3a 3d f1 bd 37 3d
       -0.12185322 -0.111650616 0.045570854 0.044858877
000390 1c df c6 bd cf 97 ac bd 1e 72 7f bb a2 45 cd 3d
       -0.097105235 -0.08427393 -0.0038977931 0.10023047
0003a0 e3 47 b9 3c 9a ff f8 3c df 45 bf 3d 62 75 c4 3d
       0.022617286 0.030395318 0.09339499 0.095927015
0003b0 6f 92 99 3c 24 52 cb 3d 76 d4 e1 bd 00 7d 9c bd
       0.018746583 0.099277765 -0.11026852 -0.07641029
0003c0 7c d1 42 bd 22 e7 ab bd 55 1a 9e 3d d5 39 f5 bd
       -0.04756306 -0.083936945 0.07719866 -0.11973921
0003d0 80 42 8a 3c e7 a4 d7 3b 29 5b 96 bc 3a 4b e7 bc
       0.016877413 0.006580937 -0.018354015 -0.028234113
0003e0 31 7e 70 3d b4 4c a7 3c c1 1e 05 bd d7 64 b5 bc
       0.058714096 0.020422317 -0.032500032 -0.02214281
0003f0 a7 6f ec bc 0c 77 e7 bc 3b a3 79 bd ce fb 97 3d
       -0.028861834 -0.028255008 -0.060946684 0.07421075

conv1.bias f4 [64]
000000 93 de c1 3d a1 d2 a8 bb 89 97 a4 bc ae fc aa 3d
       0.09466281 -0.005152062 -0.020091789 0.08348976
000010 a5 ec 1a 3d 59 a8 c4 3d 72 95 29 3d 2e 06 a8 3a
       0.037823338 0.09602422 0.041402288 0.0012819225
000020 17 6d 47 3d 5a 25 8d bd db b9 1b bd bd 2b f1 3d
       0.04868802 -0.0689189 -0.038019042 0.117759205
000030 5e 3b f8 3d d0 8e d0 bd 52 4e dc bd 51 84 e0 bc
       0.121206984 -0.10183489 -0.10757126 -0.027406843
000040 d8 c9 55 3d 80 e9 ed 3b 95 19 da bd 0f a7 86 bd
       0.052194446 0.0072605014 -0.10649411 -0.06574833
000050 d9 f7 5a 3d c9 53 b6 39 33 4d 75 ba e4 10 ca bd
       0.053459022 0.0003477617 -0.0009357512 -0.09866503
000060 97 c7 da 3d 0e b9 c7 3d 1a 1c 8f 3c 2d 84 ec bb
       0.106826 0.09752093 0.017469455 -0.007217905
000070 a1 be d6 bc 9c 26 c2 3d f4 cd 45 bc 3d 99 a0 3d
       -0.026213946 0.094800204 -0.012073029 0.07841728
000080 31 fa ce 3d 2b 85 4d 3d 68 39 e2 bd d9 51 8b bd
       0.10106314 0.050175827 -0.110461056 -0.068027206
000090 98 8f 1d bd cc bf 85 3d df 88 14 bd 4b 5d 6f 3c
       -0.03846702 0.06530723 -0.036263343 0.014609645
0000a0 59 e8 80 bd 1e a7 d9 bd 6e 46 a0 bd 7c d7 e5 bd
       -0.06294317 -0.10627578 -0.078259334 -0.11222741
0000b0 83 21 09 3e 64 95 53 bd e8 cb 86 3d d6 b0 6d 3d
       0.1339169 -0.051656142 0.06581861 0.058029972
0000c0 f6 b2 6c bd 3e ee f0 3b 87 a0 a2 ba cc a8 91 bc
       -0.057787858 0.0073526194 -0.001240746 -0.017780684
0000d0 4d 74 de 3d 83 3a b0 bd e2 ce f9 3c 6d eb 3a bd
       0.10862026 -0.0860491 0.030494157 -0.045634676
0000e0 ca bb c8 3d e6 30 ed bd 7e 9d 3c bd 74 4e ad bd
       0.09801443 -0.11581592 -0.046048634 -0.08462229
0000f0 6a 67 7f 3d 85 85 6e 3d de 0e fc bd 26 95 c3 3d
       0.062354483 0.058232803 -0.12307523 0.09549932

lstm.weight_ih_l0 f4 [256, 64]
000000 73 8a a2 3c c6 6c cd 3d c6 c9 04 3e 60 d0 bd bc
       0.019841408 0.100305125 0.12967595 -0.02317065
000010 dc ea 08 3d c4 7a 45 bd dc c5 12 3d 38 5a 97 bb
       0.033427104 -0.04821278 0.035833225 -0.004618909
000020 7a 74 1b bd ea 84 06 bc 0e f7 e4 3d a8 d1 03 bd
       -0.037952878 -0.0082104 0.111799344 -0.032182366
000030 95 0b be 3d b3 a7 e9 3c ac b9 a5 bb 61 2e 0e bd
       0.09279553 0.028522348 -0.005057534 -0.0347122
000040 a6 9c 03 3d 17 e6 b7 3d 81 0a 9a bd 30 ec b6 3d
       0.032131813 0.08979433 -0.07521535 0.08931768
000050 36 92 d7 bd a2 68 ce bd cc 88 aa bc c1 60 a2 3d
       -0.105259344 -0.10078551 -0.020817183 0.079286106
000060 8a aa 9f 3d 5f d5 b2 3c 57 36 a4 3d 38 31 6a 3d
       0.077961996 0.021830259 0.08018177 0.057175845
000070 d2 17 b9 bd af 26 9b bd 5e 41 b9 3d bc 46 00 3e
       -0.090377465 -0.07575738 0.09045671 0.12526983
000080 62 86 ac bb ce 60 a5 bd 68 73 1e bd a4 6f ef bb
       -0.005265043 -0.08075105 -0.03868428 -0.00730701
000090 2b e4 04 bd ce 98 c5 bd 8c c8 6e 3d 04 ee a1 3d
       -0.03244416 -0.09648286 0.058296725 0.07906726
0000a0 d0 43 6d bc cc 52 55 bd 74 bb d8 3d 48 ec e0 bc
       -0.0144815 -0.052080914 0.10582629 -0.027456418
0000b0 ae 7b 22 bd 48 d8 b5 bd 70 d9 a6 3d 56 00 d9 3b
       -0.03966873 -0.08879143 0.08146942 0.0066223545
0000c0 ea 3c a4 bd e4 e8 8b bd 13 97 bd bd 68 73 d0 bd
       -0.08019431 -0.0683153 -0.09257331 -0.10178262
0000d0 8a 5f 4a bb 47 5e b2 bd ab 3d 5f 3d ea 72 a9 bd
       -0.00308797 -0.08709388 0.05450217 -0.08273871
0000e0 e2 22 0d 3d a9 e2 be bd b8 2e b9 3d 72 69 08 3d
       0.034457095 -0.09320576 0.09042114 0.033303685
0000f0 4d 6a ab bd 56 44 03 3d 4b 16 ad bd a6 41 db bd
       -0.08369885 0.032047592 -0.08451518 -0.10705881
000100 ac a4 89 bd 74 93 f5 bd 50 9a 33 bc a8 2d 28 bd
       -0.06720862 -0.11991015 -0.010962084 -0.041059166
000110 b6 2c c2 bd d8 75 51 bd 78 48 fc bc 22 67 a4 bd
       -0.09481184 -0.051137775 -0.030796275 -0.080274835
000120 72 ab 8f 3d 8e f0 b6 bd 88 fe 63 bd 62 c2 b7 3d
       0.070151225 -0.08932601 -0.05566266 0.089726225
000130 a0 5e bd bd 60 5f d3 bd 68 cd 3b bd 98 32 97 3d
       -0.09246564 -0.10320926 -0.045850188 0.07382697
000140 78 f2 d8 3d fc 01 87 3d 58 21 a9 bc b4 f8 02 3d
       0.10593122 0.06592175 -0.020645782 0.031975463
000150 a0 cf 82 bd 10 75 4d 3c fc 48 2a 3d e2 9b c1 bd
       -0.063872576 0.012540117 0.04157351 -0.094535604
000160 ec f3 43 bd d8 ae 8a bd 82 42 93 bd 50 7f 0c 3d
       -0.047840044 -0.0677163 -0.0719042 0.034301102
000170 0c 12 ec 3d 00 e0 9a b9 18 25 31 bd bc a9 09 3d
       0.1152688 -0.00029540062 -0.043248266 0.033609137
000180 80 fe a5 bb a8 83 14 3d b0 ec 61 bd 8a 2d 86 3d
       -0.005065739 0.03625837 -0.055157363 0.06551655
000190 00 9c 5d 3b 64 fd 51 bd aa 1d c8 bd c0 28 fd 3c
       0.0033814907 -0.051267043 -0.09771283 0.03090322
0001a0 ca b4 ba bd a6 ac a9 3d 70 3c 4d bd 00 b0 25 bd
       -0.09116514 0.08284883 -0.050106466 -0.04045105
0001b0 b0 ec d1 bd 18 c7 de 3c c8 ea e6 bd 6c 66 79 bd
       -0.10250223 0.027194545 -0.1127525 -0.060888693
0001c0 10 55 56 bc 88 49 7e bd 98 91 bc 3c 70 b2 94 3c
       -0.013081804 -0.062081844 0.023018643 0.018151492
0001d0 20 8f d4 bc cc 5d 68 bd 18 38 50 3d d4 93 66 3d
       -0.025947154 -0.056730077 0.050834745 0.056293324
0001e0 08 25 80 bd 22 a1 a8 3d 64 02 24 3d cc 21 bc bd
       -0.06257063 0.08233859 0.040041342 -0.09186134
0001f0 30 d1 97 bc d2 e7 84 3d 00 03 b9 bd 3a 71 bb 3d
       -0.018532366 0.06489529 -0.09033775 0.09152456
000200 4d 74 9e bd 86 f2 9a bd f4 4f 87 bc 41 1d 39 bd
       -0.07737026 -0.07565789 -0.016517617 -0.045193914
000210 c5 0f ec bd a7 af 9e bd 8c e7 f8 3c ce 49 47 bd
       -0.11526445 -0.07748347 0.030383848 -0.04865437
000220 34 9b d0 3d c8 e8 17 bd 9f ba 8f 3d 34 6f b0 3d
       0.10185853 -0.037087232 0.07018017 0.0861496
000230 9a c9 1e 3c 38 3f a7 bd 91 cc 4a 3d 06 c1 95 3d
       0.00969162 -0.08166355 0.049511496 0.07312207
000240 cf 04 d2 bd 7d 2c c7 bc 4f 6e e7 bd f5 ea b3 bd
       -0.102548234 -0.024313206 -0.113003366 -0.08785049
000250 16 f2 a0 3d 84 17 13 bd 8c c8 00 be 68 d1 35 bd
       0.07858674 -0.035911098 -0.12576503 -0.04438916
000260 a0 0c dd bd ac ba a7 3d 7f 30 f8 bd e6 45 fb bd
       -0.10793424 0.08189902 -0.12118625 -0.122691914
000270 9f 15 97 bd 7f 0e c8 3d bb 90 db bd 24 8a e7 3d
       -0.07377171 0.0976839 -0.107209645 0.11305645
000280 31 bb d3 bd c8 8a c2 bd 2d fc 9f bd 79 f0 f6 bd
       -0.10338438 -0.09499127 -0.078117706 -0.12057585
000290 29 bb 99 bd 30 3a 84 3c 40 70 99 3d fe ba cc 3d
       -0.07506401 0.016141027 0.07492113 0.099966034
0002a0 ca b6 e3 bd fc 64 e1 3d d0 b6 01 3c 6f 1d 14 3d
       -0.111188486 0.11005589 0.007917121 0.036160883
0002b0 77 99 f1 bd 7f 4a 5a 3b 16 d6 e9 bd 19 3f be 3d
       -0.11796849 0.0033308563 -0.11417787 0.09289379
0002c0 3c 2b 9a bc 04 e4 3f bd 22 54 97 3a 64 af b0 bd
       -0.018819444 -0.046848312 0.0011545459 -0.08627203
0002d0 f1 c5 08 bd 98 df 5c 3d 74 cf 8b bd 73 72 b6 3c
       -0.033391897 0.053924173 -0.06826678 0.02227137
0002e0 6b cf 86 bc 89 f0 cc bc 20 90 b8 bd b4 1f a0 bc
       -0.016456326 -0.02501704 -0.09011865 -0.019546367
0002f0 d9 de ae 3d bb d8 cf 3d 5f 47 5b bd 88 d9 8d bc
       0.085385986 0.1014876 -0.05353486 -0.017315641
000300 23 0a 64 3d f4 bb b7 3d c0 31 f5 3d 2b 4a 9b bd
       0.05567373 0.08971396 0.1197238 -0.07582506
000310 51 cf 6a bd a5 2a 1c bd 33 2c d0 3d 89 1b 31 bd
       -0.05732662 -0.038126606 0.1016468 -0.04323915
000320 7f d4 96 bc 2b 1c 81 3d 0d 20 a1 3d 3f f7 97 bd
       -0.018411873 0.06304201 0.07867441 -0.07420205
000330 9e d9 7e 3d fb 55 5c bd 7e 19 89 bd fc e1 08 bd
       0.062219255 -0.053792935 -0.066943154 -0.03341864
000340 dd 5f a8 3d 15 e1 25 bd 81 dc 92 bd e6 14 84 3d
       0.082214095 -0.040497858 -0.07170964 0.064492986
000350 0c 41 dc bd b5 20 16 bd df b1 fa bc 4c 5d b4 bd
       -0.10754594 -0.036652286 -0.030602394 -0.088068575
000360 59 20 a6 bd 20 41 df 3d 60 30 77 bd f3 2c 6f bd
       -0.081116386 0.109010935 -0.06034887 -0.058392476
000370 aa 71 5e 3d c2 69 b7 bd ba 1b 57 bc e3 cb 63 bc
       0.054307617 -0.089557186 -0.013129169 -0.013903591
000380 f5 99 35 bb 54 e9 df bd 7b 6e c0 bd 23 55 49 3d
       -0.0027710174 -0.10933176 -0.093960725 0.04915346
000390 a8 c8 d2 bd 94 56 ca bd 35 0a 84 bd c0 74 b2 bd
       -0.102921784 -0.09879795 -0.06447259 -0.087136745
0003a0 c3 76 47 bd 00 fe 98 bb 88 3f 8d 3d e2 a5 cf 3d
       -0.048697244 -0.004668951 0.06896883 0.101390615
0003b0 75 eb 71 3d 01 6f 90 3d a1 80 db bd fa f9 49 bd
       0.05906244 0.07052422 -0.107178934 -0.04931066
0003c0 30 e3 01 ba 00 52 23 3d 6e 31 c7 3d 7d 77 bf bd
       -0.0004954813 0.039873123 0.09726225 -0.093489625
0003d0 bd 01 cc 3d 29 cc 3b 3d 29 60 b2 3d a8 4f 92 bc
       0.09961269 0.045849 0.08709747 -0.017860249
0003e0 3b 63 d3 bd ea 5c 31 bc 40 9f 02 bd 9b 67 1b bd
       -0.10321661 -0.010825375 -0.031890154 -0.037940603
0003f0 23 06 bb 3c dd d7 a1 bd 8b 19 01 3d a4 ae c8 3d
       0.022830075 -0.07902501 0.0315185 0.09798935

lstm.weight_hh_l0 f4 [256, 64]
000000 0c f3 90 3c c4 c4 27 3d d8 f9 57 3d 94 fb b4 3d
       0.017694019 0.040959135 0.052728504 0.08837047
000010 32 b5 94 bd c8 56 86 3c d2 b8 ce 3d 25 e5 ba 3d
       -0.07261123 0.016398802 0.100938454 0.09125737
000020 02 de e9 bd bc 77 9c 3d e0 4b d0 bc 33 f5 84 3d
       -0.11419298 0.07640025 -0.025426805 0.064920805
000030 c0 0c 54 bd 9d 27 bd bb 49 0f 93 3d a6 ce 04 3e
       -0.05176997 -0.0057725445 0.0718065 0.12969455
000040 90 a2 0e 3b dd cf 42 bd 36 a8 9f 3d be 79 d4 3d
       0.0021764375 -0.047561515 0.077957556 0.10374783
000050 de 1b df 3d 70 e3 af bc 45 da 5a bd 53 fc b8 bc
       0.10893987 -0.021470755 -0.053430814 -0.022581255
000060 fd 0f 42 3d 28 a3 cd 3d f0 d0 c1 bd 73 98 02 be
       0.04737853 0.10040885 -0.0946368 -0.12753467
000070 e1 63 f7 3d 71 45 b0 3c 1f de 8a bd f9 f3 36 bd
       0.12079597 0.021517487 -0.067806475 -0.044666264
000080 0e d3 df 3d a0 b5 e1 3d 36 e0 de bd 9e e2 dc bd
       0.10928927 0.1102097 -0.108826086 -0.10785411
000090 f6 24 c3 3d 76 1c a1 3d 20 c1 91 3d a6 11 8f bd
       0.09528534 0.078667566 0.07116914 -0.06985788
0000a0 84 62 e9 bd d0 22 ba bd 20 b8 28 3c 80 dc 1c 3b
       -0.113957435 -0.09088671 0.010297805 0.002393514
0000b0 03 06 a3 bd 9c a3 65 3d 39 ba 61 bd 88 07 9b 3d
       -0.07960131 0.056064233 -0.055109236 0.07569796
0000c0 30 7b 15 3c fa 86 e1 bd b1 38 6b bd ab 6b 90 3d
       0.0091236085 -0.11012073 -0.057427112 0.07051786
0000d0 76 5b 8b bd 20 ae 01 bc 2f 32 83 bd 6e 6c e0 bd
       -0.06804554 -0.00791505 -0.06406056 -0.10958181
0000e0 32 8b 9b bc 9c 0c ae 3d 26 78 c2 bd d8 2e a8 3d
       -0.018987272 0.08498499 -0.09495573 0.0821206
0000f0 50 30 d4 3d 74 72 ce bd 38 4f a5 bd 83 c2 c7 bc
       0.103607774 -0.10080424 -0.080717504 -0.024384743
000100 04 8f d8 3d 5c 2f 7e 3d 1e 1c ab bd 5c 5f df 3d
       0.10574153 0.062056884 -0.08354972 0.1090686
000110 38 82 ab bd b0 4e 4c bd 8e 82 b0 3d d4 b3 e1 bd
       -0.08374447 -0.04987973 0.08618651 -0.110206276
000120 c2 b7 c0 bd d4 b3 6d 3d c4 f0 cd bd 80 5e 96 bd
       -0.09410049 0.058032826 -0.10055688 -0.07342243
000130 cc 75 84 bd 00 8c 8e bc 70 7b e5 3c dc 49 a5 3d
       -0.064677805 -0.017400742 0.028012961 0.08070728
000140 2c e6 d5 3d 64 7e 1e bd 66 b7 ef 3d 58 7c 25 bd
       0.104442924 -0.038694754 0.11704902 -0.040401787
000150 06 d3 a2 3d c0 f5 00 3c 0e af f3 bd 24 36 fe bd
       0.07950406 0.007871091 -0.118986234 -0.1241267
000160 18 9b b7 bc 6a 17 d2 bd 3e 56 90 bd 18 91 b5 3d
       -0.022412822 -0.10258372 -0.070476994 0.08865565
000170 24 ec 63 bd c2 de 9e bd a6 8e 80 3d 8c 0b 4d 3d
       -0.055645123 -0.077573314 0.06277208 0.05005984
000180 70 10 7b 3c 92 5e 99 bd 34 1f 19 bd da fb ac 3d
       0.015323743 -0.07488741 -0.037383273 0.084464744
000190 20 f6 b4 3b 58 0c bb 3d e0 f4 f8 bd d8 41 25 bd
       0.0055225044 0.09133214 -0.12156081 -0.040345997
0001a0 40 0b fc bc 4a 8d 9c bd 50 43 46 3d 74 ee 59 bd
       -0.030767083 -0.07644136 0.048404038 -0.053205922
0001b0 00 8e d1 39 20 4f e4 bb 12 eb db 3d 18 ea 7a 3d
       0.00039969385 -0.0069674402 0.107381955 0.061258405
0001c0 d2 e9 c8 bd 38 25 ae 3d a0 bb 2e bd 28 6c 42 3d
       -0.09810223 0.08503193 -0.042659402 0.047466427
0001d0 36 01 b3 bd 7c 3e 62 bd 28 2e 9c 3d a4 ab 52 3d
       -0.08740465 -0.05523537 0.07625991 0.05143322
0001e0 e0 ad bc 3b 46 96 89 3d d4 8d 2f 3d 14 ed ff bd
       0.005758032 0.067181155 0.042859867 -0.12496391
0001f0 1a cf 8c bd f8 b1 a6 3c 58 9e 83 bd b8 2c b2 bd
       -0.06875439 0.020348534 -0.06426686 -0.08699936
000200 a0 b4 43 3d 96 71 f1 bd ef 95 c8 bd 53 86 b7 3d
       0.04777968 -0.11789243 -0.097942226 0.08961167
000210 78 ad dd 3d 20 74 f4 bd 60 b4 29 bd e2 6f b2 3d
       0.10824102 -0.119362116 -0.041431785 0.08712746
000220 19 ab 08 3d ca 77 39 bd bb bb 2e bd f7 be f4 3b
       0.033366296 -0.045280255 -0.042659502 0.007469054
000230 ec 7a c3 3d 0f 83 19 bc 30 ce ac bd 81 22 c7 bc
       0.0954493 -0.009369626 -0.08437765 -0.024308445
000240 3b 5b 9d 3d ed c4 f9 3d f0 d0 b0 bd 42 6f 27 3c
       0.076834165 0.12195764 -0.08633602 0.010219397
000250 20 0a 0c bd d0 e6 83 3d af a3 f4 bb 92 38 c5 3d
       -0.034189343 0.06440508 -0.0074658017 0.096299306
000260 3b b1 ca bd 91 b3 51 3d 7e 13 c2 3c 5c 79 04 bd
       -0.09897085 0.05119664 0.023690935 -0.0323423
000270 d2 d4 a4 3d 43 b8 c3 bd e1 56 b3 bd 61 c3 6f bd
       0.08048405 -0.095566295 -0.08756805 -0.058535937
000280 b2 2a e9 bd 66 79 ec bd 94 44 98 bd 6e 93 b6 bd
       -0.113850966 -0.115465924 -0.07434955 -0.08914839
000290 d8 db 6a bd 0a 21 95 3d b2 0d e7 3d 7e e2 99 3d
       -0.057338566 0.07281692 0.11281909 0.07513903
0002a0 0f 70 bd 3d 63 06 02 bc 6e 72 cb 3d d1 21 d4 3c
       0.09249889 -0.007936093 0.09933935 0.025895031
0002b0 8e e3 32 3d ac cd c0 3d 8f 2f fa 3c 5c ec 02 bd
       0.043674044 0.09414229 0.030540256 -0.03196369
0002c0 9c 89 f0 3d 28 04 f2 3c 23 f2 dd 3d 89 90 8e bd
       0.11744997 0.029542997 0.108371995 -0.06961162
0002d0 68 a0 cc 3c 3e b2 ab bd 18 5f 51 bd f2 ac 94 bd
       0.024978831 -0.083836064 -0.05111608 -0.07259549
0002e0 07 a2 1d bd e0 2d b0 bb 5e eb 59 bd 18 3a 61 3d
       -0.0384846 -0.0053765625 -0.05320298 0.054987043
0002f0 90 b2 16 bc 26 19 f1 3d c8 78 59 3d f1 f9 36 bd
       -0.009197846 0.11772375 0.0530937 -0.044671956
000300 5d 77 06 3b 58 1b 39 3d bb 2b 47 bc 5b 61 b1 3d
       0.0020517923 0.045192093 -0.012156422 0.08661147
000310 f2 1f 90 3d 31 6d 52 bd 80 8b 5e 3c e1 ee 5a bd
       0.07037343 -0.051373664 0.013583064 -0.05345047
000320 18 94 08 3d dc 04 07 3d 3e 96 22 3d 59 9a 9d bd
       0.03334436 0.03296362 0.039694063 -0.07695455
000330 d8 68 9c bc 8d 30 f5 bd ce fb f0 3d 27 68 4d 3d
       -0.019092962 -0.11972151 0.11766778 0.050148156
000340 44 b5 f7 bd a8 49 08 bd 22 07 f1 bd 9c d4 d3 bc
       -0.120951205 -0.03327337 -0.117689386 -0.025858216
000350 c0 ba a1 bd f8 3d 33 3d 66 84 68 bd 79 fd cc bd
       -0.07896948 0.04376027 -0.05676689 -0.100092836
000360 91 cb 49 3d 8b c5 4a bd 67 48 f5 3d b6 3a 9f bc
       0.0492664 -0.049504798 0.119767 -0.019437175
000370 74 a0 2e bd 48 6e 65 bd 7f fe f0 bd bf 35 90 bb
       -0.04263349 -0.056013376 -0.11767291 -0.0044009383
000380 90 37 5e 3c a8 e1 93 bb 5a 09 f3 bd c0 94 07 bc
       0.013563052 -0.0045129843 -0.11867018 -0.008275211
000390 9e f7 ee bd f4 4e ae 3d 12 72 9d bd be 57 b0 3d
       -0.11668323 0.08511153 -0.07687773 0.086104855
0003a0 07 7e 96 3d e4 d9 ba bd 60 f0 b0 3c 6d 90 37 b9
       0.073482566 -0.091235906 0.021598995 -0.00017506043
0003b0 57 45 bf 3d 16 2c cd 3d 43 38 b1 bd 74 e3 83 3d
       0.093393974 0.10018174 -0.08653309 0.064398676
0003c0 80 79 fe bd d0 b6 59 3c 16 04 31 ba 0e 5d b1 3d
       -0.12425518 0.013288215 -0.0006752623 0.08660327
0003d0 b0 cb 9e bd d0 29 cc 3c f5 d0 f6 3d 60 3e d8 3b
       -0.07753694 0.024922282 0.12051574 0.0065992326
0003e0 92 23 39 3d 40 71 49 bd 2a 31 5f bd c8 62 73 3d
       0.045199938 -0.04918027 -0.054490246 0.059420377
0003f0 b2 45 a6 3d 64 f2 b9 3d 89 5d 44 bc 71 c9 32 bc
       0.08118762 0.090794355 -0.011985191 -0.010912285

lstm.bias_ih_l0 f4 [256]
000000 6c 39 a1 3d 60 71 f9 bb 5a e8 da bd 60 3b b6 3a
       0.078722805 -0.0076123923 -0.10688849 0.0013903193
000010 70 06 b2 bd d0 45 87 bd 46 02 db bd 60 bd e2 bb
       -0.08692634 -0.066051126 -0.10693793 -0.006919548
000020 03 cc b8 bd 20 54 a3 bd bc 03 21 bd 7c 81 48 3d
       -0.09023287 -0.0797503 -0.039310202 0.04895161
000030 b4 b4 1c bd 89 e4 ae bd 93 e9 c5 bd 1e ad 09 3e
       -0.03825827 -0.08539683 -0.09663691 0.13444945
000040 2e 15 f3 3d 38 5e 02 bd 5a 74 a6 3d a5 36 e3 bd
       0.11869274 -0.031828135 0.08127661 -0.11094407
000050 26 ea 01 3e 7b 2c 27 bc fe a4 81 3d 15 78 c7 bc
       0.12686977 -0.010203476 0.06330298 -0.024349252
000060 eb 8c d5 bd 3f 47 8b 3d e0 f8 01 3d 2e a0 c1 bd
       -0.104272686 0.068006985 0.031731486 -0.0945438
000070 e2 88 ad bd 38 dc b2 3c f0 a6 4c 3b d3 26 8d 3c
       -0.08473374 0.021833524 0.0031227432 0.017230427
000080 80 9c 2e 3c 36 07 c2 3d 0a 90 d2 3d 8a ee 9f 3d
       0.01065743 0.094740316 0.102813795 0.078091696
000090 61 8e e2 3d 14 50 f5 3d 95 89 79 3d f0 9a 91 3d
       0.11062313 0.11978164 0.060922224 0.0710963
0000a0 fc 61 aa 3d 14 23 d9 bd 99 c7 07 3d d8 78 c3 3b
       0.0831947 -0.10602394 0.033149336 0.0059653334
0000b0 a8 2c ad 3d ce 5b b7 3d 51 81 c3 bd b2 97 e4 3d
       0.08455783 0.08953057 -0.095461495 0.11161746
0000c0 22 39 ef 3d 04 86 4a 3d 79 aa ef 3d 5a 23 77 3b
       0.11680819 0.049444214 0.11702437 0.003771028
0000d0 80 e9 39 bb 60 84 19 bd a8 53 eb 3a a2 75 93 3d
       -0.0028367937 -0.03747976 0.0017954009 0.07200171
0000e0 6f 60 8c 3d d0 31 c9 3d 1c 60 7e bd e1 c3 f4 3d
       0.06854331 0.09823954 -0.062103376 0.119514234
0000f0 07 46 d4 3d 60 74 11 bc 56 16 18 bd 2c 6c 48 bd
       0.10364919 -0.008877844 -0.037130676 -0.048931286
000100 68 68 48 bd a8 b8 c9 bd 03 3b 84 3d fa f0 c7 bd
       -0.048927695 -0.098496735 0.06456568 -0.097627595
000110 45 18 fa 3d 62 8b bc 3d 4a 03 dc bd fb 24 fd 3c
       0.1221166 0.09206273 -0.10742815 0.030901423
000120 5d 0c b4 3d 9a 73 ea bd a8 0c 8d 3c 9c 82 d9 3d
       0.087914206 -0.114478305 0.017217949 0.10620615
000130 3c bd 46 3d 89 a9 98 3c cc 29 2e 3d 55 1e 0c 3d
       0.04852031 0.018635528 0.04252033 0.034208614
000140 23 d7 e8 bd c0 34 ff 3c 30 82 45 bc 6b 8b 89 3d
       -0.11369159 0.031153083 -0.012054965 0.06716045
000150 f3 e3 93 bd 80 ef 4a bc 3a 14 34 3d b8 f6 44 bd
       -0.07221212 -0.012386203 0.043964602 -0.04808685
000160 8c 38 a4 bc ac bf 06 3d 58 06 32 bd e0 b6 d4 bd
       -0.020046495 0.032897636 -0.04346308 -0.10386443
000170 d0 ce fc 3d c4 7a 20 3d 80 65 06 bd b1 25 84 3d
       0.12344134 0.03917958 -0.03281164 0.064525016
000180 c0 84 fc bb 90 06 95 bd 52 cf 8f bd b0 59 13 bd
       -0.0077062547 -0.07276642 -0.07021965 -0.035974205
000190 03 74 db 3d f2 67 bd bd c0 38 cd bc 34 9c cc bd
       0.10715487 -0.092483416 -0.025051475 -0.09990731
0001a0 60 77 74 3d 14 72 fb 3d 52 93 f9 3d 7e f3 8d 3d
       0.059684157 0.12277618 0.12186302 0.06931208
0001b0 ef 76 de 3d 54 ba c3 bd a1 bc db bd 72 c3 ff bd
       0.108625285 -0.09557024 -0.107293375 -0.1248845
0001c0 4c f2 c9 bd e0 84 a6 3b e7 2b 0b 3d fe 30 0a 3e
       -0.098606676 0.005081758 0.033977415 0.13495252
0001d0 9e 55 e9 bd 52 cb 26 bd 22 6d 1e bd 4c 53 22 bd
       -0.11393283 -0.040721245 -0.038678296 -0.03963022
0001e0 58 ce a8 3d f8 52 c3 bc dc 0b ee 3d 92 f4 07 3c
       0.08242482 -0.023843274 0.11623356 0.008298056
0001f0 78 cb ec bd b0 a6 91 bd 0d f6 c8 3b 2c bf 6f bd
       -0.11562246 -0.07111871 0.006132847 -0.058531925
000200 80 31 06 3b 98 e9 cc bd 6c 68 96 3c 28 c2 6b 3d
       0.0020476282 -0.10005492 0.01836034 0.05755821
000210 72 11 c2 3d 7a b7 97 bd 18 3c 32 bd 58 2e dd 3d
       0.09475984 -0.07408042 -0.04351434 0.10799855
000220 3b df cb bc 85 5c 82 3d e8 b3 a6 bc d4 36 63 3d
       -0.024886718 0.06365303 -0.020349458 0.05547221
000230 a0 59 fd 3c 22 9a f6 bd 12 26 f7 bd 6a bd 22 3d
       0.030926526 -0.12041117 -0.12067808 0.03973142
000240 7c 76 0f 3d 4a 81 4a bd a0 5c 41 3c 28 af 09 3b
       0.035025105 -0.049439706 0.011801869 0.0021008942
000250 f4 42 f1 bc ae 77 a8 3d d8 94 8a bc 91 fe f0 3d
       -0.029450871 0.08225952 -0.016916677 0.11767305
000260 72 d1 9c 3d ae 63 6a 3d bc 6a 73 3d e0 89 a1 bb
       0.07657136 0.05722397 0.05942796 -0.004929766
000270 f0 13 89 bc 90 4f ee 3c 48 9b c9 3d b8 2f c1 bc
       -0.01673314 0.029090673 0.09844071 -0.023582324
000280 76 cf 9b 3d f5 21 f6 3d 70 e3 d0 bc 9e 90 c4 3d
       0.076079294 0.120181955 -0.025499076 0.09597896
000290 be 32 ca bd 58 d3 2c 3d 02 7a d5 bd 54 b9 52 bd
       -0.098729596 0.04219374 -0.10423662 -0.051446274
0002a0 60 b4 ee 3d b6 d0 68 bd 5c b6 50 3d 82 eb e8 3d
       0.116554976 -0.056839667 0.05095516 0.113730446
0002b0 09 85 a1 bd a0 53 8c 3d 06 67 ad bd be 96 fe bd
       -0.078867026 0.06851888 -0.08466916 -0.124310955
0002c0 74 bf a2 3d 78 e0 bc bd fa de f4 3c fe db 05 bd
       0.07946673 -0.092225015 0.02989148 -0.032680504
0002d0 c8 e1 c5 3d 63 5f 3d 3c 06 78 a7 3d 52 6d 8d bd
       0.09662205 0.0115583865 0.081771895 -0.06905617
0002e0 2f 89 8e bd 48 4b 52 3d e4 9d c8 3d 88 ac d3 3c
       -0.069597594 0.051341325 0.0979574 0.025839105
0002f0 b0 d0 e8 3d 90 ed df bc 67 b3 9c 3d 34 6a 5a 3c
       0.11367929 -0.027334958 0.07651406 0.013330985
000300 ad 34 aa bc f8 fa 30 3d d2 17 6c 3d f0 b1 ec 3c
       -0.02077707 0.043208092 0.057639904 0.028893441
000310 88 75 bc bd e2 09 a3 3d 98 cd ad bc 6d a8 87 3d
       -0.09202105 0.07960869 -0.021216199 0.066239215
000320 21 76 d7 3d 22 c2 f3 3d 4e 73 98 3d 48 8e 47 bd
       0.10520578 0.11902262 0.074438676 -0.048719674
000330 ca f6 9c 3d ec 2b ea bd 79 a8 6e bc a0 62 49 bd
       0.07664259 -0.11434159 -0.014566534 -0.04916632
000340 52 76 b2 bd 09 f8 6c bd b0 b2 02 bc 0d 3b 59 3d
       -0.08713974 -0.057853732 -0.007977173 0.05303483
000350 ab f7 0b 3e a8 32 ff bd 80 b2 69 bb 4e f3 b0 3d
       0.13668697 -0.12460834 -0.0035659373 0.08640157
000360 ed 51 8a 3d 0a 59 ab bd 30 b4 89 bb 9f 47 92 bd
       0.06753907 -0.08366592 -0.004202388 -0.07142567
000370 ba 21 42 bd ca af df 3d 97 b3 ab 3c a0 01 32 bd
       -0.047395445 0.10922201 0.020959659 -0.04345858
000380 00 e2 9d 3b 8b 4b ca bd a0 7e 41 bc 00 af 5f 3d
       0.004818201 -0.0987769 -0.011809975 0.054610252
000390 20 0a 8a bc 58 c4 46 3d 00 97 65 bd de d4 af bd
       -0.016850531 0.04852709 -0.056052208 -0.08585523
0003a0 04 98 77 bd 12 33 1e bc 78 71 a5 3b 22 2e 1d ba
       -0.060447708 -0.009655731 0.005048927 -0.0005995949
0003b0 49 a0 a6 3d 82 c2 80 bd 43 26 74 bd 00 da 42 ba
       0.08136041 -0.062870994 -0.0596068 -0.0007432997
0003c0 54 58 42 3d 84 a2 f2 bd c9 f9 63 3d 70 03 c8 bc
       0.047447518 -0.11847404 0.055658136 -0.024415702
0003d0 e6 73 c5 bd 4d fd de 3d 90 7f be bd 48 43 39 bd
       -0.096412465 0.10888157 -0.09301674 -0.04523018
0003e0 b6 a5 ce 3d b8 9c e3 3c 7d b8 b6 bd d0 75 a0 bd
       0.100902006 0.02778469 -0.08921907 -0.07834971
0003f0 e3 64 5a bd 66 54 d5 3d 17 b1 23 3d ca e1 91 3d
       -0.05331887 0.10416488 0.039963808 0.07123144

lstm.bias_hh_l0 f4 [256]
000000 ea ff b0 3d 48 b0 dd bd c7 9b 03 be 6f f7 9a 3c
       0.08642562 -0.108246386 -0.12852393 0.018916814
000010 9e 8e 5e bd cd 65 3e bd fc 38 4f bd ba b6 9e bd
       -0.05433523 -0.046483804 -0.050591454 -0.07749696
000020 91 b1 de 3c 0a 14 82 bd 98 ca 5e bd c4 1f 35 3d
       0.02718428 -0.063514784 -0.054392427 0.044219747
000030 a4 0a 41 3d c0 93 ca 3b 9f 79 bd bd 87 27 f4 3d
       0.04712929 0.006182164 -0.09251713 0.11921602
000040 e0 3a 1a 3c a0 95 3d bd 02 73 ac 3d a1 c7 c1 3d
       0.009413451 -0.04628527 0.084203735 0.09461904
000050 9c 28 b8 3c 50 36 b0 3d 00 be 28 3d 67 51 bf bd
       0.022480302 0.08604109 0.041196823 -0.09341698
000060 bd 5f be bd be 9c e3 bc 9c bd 7f bd c3 5e 39 bd
       -0.092956044 -0.027784701 -0.062436685 -0.045256387
000070 a0 6b c5 3d c4 1f 8f bd ee 42 04 3e f0 18 21 bd
       0.096396685 -0.06988481 0.12916157 -0.039330423
000080 4e 24 8b bd e0 fa 6e bb c0 f4 68 3d 82 86 ab 3d
       -0.06794034 -0.003646545 0.056874037 0.08375265
000090 fe b9 49 3d 8a ba e2 3d de 26 e7 3d c2 e2 9b 3d
       0.04924964 0.11070736 0.1128671 0.0761161
0000a0 ac 39 8e bd e0 11 12 3d 10 0d 9c 3d 5a 40 d4 3d
       -0.06944594 0.03566158 0.07619679 0.103638366
0000b0 70 6e d7 3d 00 d2 81 ba db 24 04 bc b2 6c ec 3d
       0.10519111 -0.0009904504 -0.008065428 0.115441695
0000c0 ae 23 ab bd c4 36 be bd 03 fb 1d bc 5f 65 0e bd
       -0.08356415 -0.092877895 -0.009642365 -0.034764644
0000d0 14 d8 17 bd 98 ad 43 bd 17 da 89 bc d6 4e e4 3d
       -0.037071303 -0.047772974 -0.016827626 0.11147849
0000e0 ea e2 12 bc e0 2c 8b bd 7a 33 d6 3c 4b e3 8a 3d
       -0.008965233 -0.067956686 0.026147593 0.06781634
0000f0 4e de ef 3c ba 86 91 3d b9 4b a1 b9 ca 54 bb 3d
       0.029280808 0.07105775 -0.0003076473 0.091470316
000100 b2 07 f3 bd d6 5e eb 3d 0e 63 44 bd 2f 1d 18 bd
       -0.11866702 0.11492698 -0.04794603 -0.037137207
000110 ac ec 18 bc 10 3b 0b bd 1c ff 90 bd ca 4a 10 3e
       -0.009333771 -0.033991873 -0.07079908 0.1409103
000120 4d ac 7a 3d b8 40 6d 3d 18 ee 6e 3d b0 6a f3 3c
       0.061199475 0.05792305 0.058332533 0.029713959
000130 c0 bc d6 3d f3 09 9e 3d fe e6 e0 3d a6 a7 b8 bd
       0.1048522 0.077167414 0.10981558 -0.090163514
000140 8c 5e 75 3c 00 d0 c5 39 68 09 fa bc aa c3 16 bd
       0.014976155 0.0003772974 -0.030522063 -0.036807694
000150 9a 66 b6 bc da 8a f2 bd 81 49 f4 3c 00 cd 63 bc
       -0.022265721 -0.1184289 0.029820206 -0.013903856
000160 75 7a 52 bd 26 33 d3 3d cc 47 f7 3d 34 ee 23 3d
       -0.051386315 0.1031249 0.12074241 0.04002209
000170 ca e2 be bd e1 1a e0 3d 08 59 1b bd 31 e7 d2 3c
       -0.093206 0.10942627 -0.037926704 0.025745006
000180 a4 27 db 3d 1f 0a 0c 3e 04 5b b1 bd cc 7b 95 bd
       0.1070092 0.13675736 -0.08659938 -0.07299003
000190 48 a7 4b bd 90 f8 96 3c e4 86 de 3d 00 ca 06 bc
       -0.04972008 0.01842907 0.10865572 -0.0082268715
0001a0 c6 bd e1 bd 68 ae df bc f0 9c 5d 3c 53 94 fa bc
       -0.110225245 -0.027304843 0.013526186 -0.030588305
0001b0 74 cd 63 bd b4 33 16 3d 89 49 93 bd 10 18 59 3c
       -0.055615857 0.0366704 -0.0719176 0.013250366
0001c0 1e 76 94 3d 44 2a 6e bd b4 74 37 3d 32 df 2c bd
       0.072490916 -0.058145776 0.04478903 -0.042205043
0001d0 00 39 84 bc 52 92 31 3d 09 ac ef 3c 50 53 15 3c
       -0.016140461 0.043352433 0.029256837 0.0091141015
0001e0 9a b4 9e 3c 2c ec e8 3d a0 b4 99 bc 06 bc 95 3b
       0.019373227 0.11373171 -0.018762887 0.0045695333
0001f0 10 b3 3a 3c d8 a7 91 3d 80 cc b3 bd c0 97 f1 3b
       0.011395231 0.07112092 -0.0877924 0.0073728263
000200 66 e4 95 bd 80 73 8b 3c 1d 2e 05 bd f0 34 81 3d
       -0.07318954 0.017022848 -0.03251468 0.06308925
000210 0e ca ea 3d 1c ef bc bd 50 61 81 3d a2 b4 59 bd
       0.1146432 -0.09225294 0.06317389 -0.05315078
000220 74 03 8e bd 4f 6c dc bd e0 1e 8a 3c 2a 2e cf bd
       -0.069342524 -0.10762846 0.016860425 -0.10116227
000230 46 1f bc bd 48 a4 db 3d a0 b5 ab 3d c6 e1 8d 3c
       -0.091856524 0.107246935 0.083842516 0.017319571
000240 c0 5d 93 3d 13 92 9c bc 86 2a fb 3d 28 e2 3e bd
       0.07195616 -0.019112622 0.1226397 -0.0466024
000250 74 41 e4 bd 4d 21 d7 3c 0c dd c8 3d e9 da af 3d
       -0.11145297 0.026260996 0.09807786 0.08586676
000260 dc 6e 44 bd 14 92 d2 bb 22 c3 c1 bd d2 f6 a8 3d
       -0.047957286 -0.0064261053 -0.09461047 0.08250202
000270 92 01 8c bd ec 4d 79 3d c3 bb 31 bd 04 14 8b bd
       -0.06836237 0.060865328 -0.043391954 -0.06790927
000280 4a 6d 8e 3d bd 28 8e bd e4 ac 43 bd 90 54 ac bc
       0.06954439 -0.06941364 -0.047772303 -0.021036416
000290 20 85 ac bc f0 0d 47 bc dc 80 f6 3d d0 a3 3e 3d
       -0.021059573 -0.012149319 0.12036297 0.046542943
0002a0 de c0 06 be 2c c0 e8 3d 3c 41 2f bd b8 11 a7 bd
       -0.1315951 0.11364779 -0.04278682 -0.081576765
0002b0 cf 01 67 bd 5c 48 ba bd 72 bc 64 3d 4e 9d ab bd
       -0.05639821 -0.09095833 0.055843778 -0.08379613
0002c0 70 5a 0f 3c 82 db d9 bd 71 28 ec bd bd 46 90 bd
       0.008749589 -0.10637571 -0.11531151 -0.07044742
0002d0 5e d5 ee 3d da bc 44 bd 22 31 ea bd de c8 b5 3d
       0.1166179 -0.048031665 -0.114351526 0.08876203
0002e0 f1 e9 28 3d 70 63 1b bc 6e 9c c7 bd 98 cc 94 3c
       0.04123873 -0.009484157 -0.097466335 0.018163964
0002f0 0e 0f bc 3d 9a ed 87 bd 99 eb de bd de 16 b0 3d
       0.09182559 -0.06637116 -0.108847804 0.085981116
000300 b1 cb 49 3c e4 7f 99 3d aa 08 a0 bc 28 ee c2 bd
       0.01231663 0.07495096 -0.019535381 -0.09518081
000310 76 8f d2 3d b8 80 b7 3d ac 40 a2 bd d0 16 c6 3b
       0.10281269 0.08960098 -0.079224914 0.0060452
000320 25 cf fa bd 40 02 c7 3c b4 91 99 bc f8 12 96 3c
       -0.12246541 0.024293065 -0.018746234 0.018319592
000330 40 f1 78 bc 00 46 90 ba 0b 08 06 3d c4 c0 7f 3d
       -0.015194237 -0.001100719 0.032722514 0.062439695
000340 ee 53 02 3e 53 7b cd bc c2 20 9d bd 5c 23 1e 3c
       0.12727329 -0.02508322 -0.07672264 0.009651985
000350 ff c0 c9 bc 22 21 6e bd 88 e1 ea 3c 6a 48 0d bc
       -0.02462816 -0.058137067 0.028671995 -0.008623222
000360 e6 e7 46 bd e4 4d cf 3d e9 a9 91 bd 4e bd 60 3d
       -0.048561 0.10122278 -0.07112486 0.054868035
000370 6a fc 7d bd 99 f2 8f 3b c4 ae 4e 3d b0 4c 26 3c
       -0.0620083 0.0043929336 0.05045964 0.01015012
000380 b8 bb a0 3c 61 4b 83 bd 26 33 9e bd 44 95 4f 3d
       0.019620761 -0.06410862 -0.077245995 0.05067946
000390 30 0f 89 bd a0 e8 90 bb 5c 9b f4 3d e4 98 67 bd
       -0.0669235 -0.0044222623 0.11943695 -0.056542292
0003a0 ea f1 9c bd b8 09 be 3d 51 2b c9 bd f1 46 a1 3d
       -0.07663329 0.092791975 -0.09822715 0.07874859
0003b0 a9 3a eb bd d0 15 13 bd dd 77 ce 3c 48 67 8e 3c
       -0.11485798 -0.035909474 0.02520364 0.017383233
0003c0 90 f7 38 3d c8 89 62 bd ce b2 bb 3c 28 8e 56 bd
       0.04515797 -0.05530718 0.02291241 -0.052381665
0003d0 1c 2c 9c 3d 9e b2 86 3c f4 38 19 3d dc d4 63 3d
       0.07625601 0.016442593 0.03740783 0.05562292
0003e0 ae ed c5 bd fc a2 ca bd 51 c5 ba bd 6d 48 44 bd
       -0.096644744 -0.09894368 -0.09119666 -0.047920633
0003f0 60 b6 26 3d f0 a1 c3 bd 90 5f cf bd 65 ec 62 bd
       0.04070127 -0.095523715 -0.10125649 -0.055401225

fc.weight f4 [18, 64]
000000 99 16 b8 bd ec d9 6a bd c9 b4 a9 bd 31 2b 43 3e
       -0.08988685 -0.057336733 -0.08286435 0.19059445
000010 ba 19 4a be b8 71 67 bd 20 0f f8 bb 87 07 49 3e
       -0.19736376 -0.056504935 -0.0075701624 0.19631778
000020 bf 63 cc 3d 0e 46 cc 3d 12 39 da bd 07 e2 50 3d
       0.099799626 0.09974299 -0.106554165 0.050996806
000030 70 a6 6f bd 9e 72 9c 3d 3c 1b 76 3d 19 ee 14 3e
       -0.058508337 0.07639049 0.060084566 0.14543952
000040 20 6c 79 3d be 33 58 3e ac 02 08 3d c3 fc 39 be
       0.06089413 0.21113488 0.033205673 -0.18162827
000050 bd d3 25 3e 91 5d 1e 3d 2e 4b e0 bd 6c 91 60 be
       0.16194053 0.03866345 -0.109518394 -0.21930474
000060 15 cf 9c 3d fe af 7e 3d 3b 14 95 bc a9 87 99 bd
       0.07656685 0.062179558 -0.018198123 -0.07496578
000070 1f bf b3 bd ed ed 02 3d 6c 97 1b be de 3e 80 bd
       -0.08776688 0.031965185 -0.15194482 -0.06261991
000080 1a 09 c8 3d 29 26 1c 3e 1c 43 d2 3d a4 be 13 3d
       0.09767361 0.15248932 0.10266706 0.03607048
000090 05 7c b9 bd f4 8a 62 bd 7e ff 10 bc 98 22 f3 bd
       -0.09056858 -0.055308297 -0.008849977 -0.118718326
0000a0 99 64 19 3e 78 51 2a 3e d7 36 c6 bd 68 f7 da 3d
       0.14979781 0.1663264 -0.096784286 0.1069172
0000b0 d7 d0 0b 3e e0 5b ee bd e6 3a eb bd b0 4b 5c bc
       0.13653885 -0.116386175 -0.11485843 -0.01344578
0000c0 7a 73 91 3d 40 af 4b bd 04 4d 8f bd 09 95 05 be
       0.071021035 -0.04972768 -0.069971114 -0.13045134
0000d0 42 4e a4 3d 0c 4a c9 3d 58 c0 5d be 70 c1 14 bc
       0.08022739 0.098285764 -0.21655405 -0.009079322
0000e0 8c 35 f6 bd 9e 82 f5 3d 5a 21 44 3e 20 f7 c9 bd
       -0.12021932 0.11987804 0.19153348 -0.098615885
0000f0 13 83 28 3e c0 17 54 3d 30 84 94 bc c4 6b 43 3e
       0.16456251 0.051780462 -0.018129438 0.19084078
000100 57 04 18 be 7c 55 9d bd 85 61 39 3d 48 97 00 3e
       -0.14845406 -0.076823205 0.045259017 0.12557709
000110 d4 f3 8e bd cd 9a e4 3d f4 d3 9f bd c1 f4 db 3d
       -0.069801 0.111623384 -0.07804099 0.107400425
000120 b2 7e 0f be 56 3e 8f 3d 6a 01 45 bd c2 79 e3 bc
       -0.14013174 0.069943115 -0.04809705 -0.02776802
000130 60 01 67 3d 12 10 f9 3d 28 65 e3 bc a8 8e 4a 3e
       0.056397796 0.12161268 -0.027758196 0.19780982
000140 f7 30 ed 3d df 8c 58 3e 06 fd 8e bd 72 b3 0e be
       0.11581605 0.21147488 -0.06981854 -0.1393564
000150 47 f7 23 3e 71 91 36 bd 06 b8 e4 bd 10 42 6a bd
       0.16012298 -0.044572297 -0.11167912 -0.05719191
000160 54 c6 f1 bc cc 6b 36 bd 60 80 b7 bc 8c 84 a8 3c
       -0.029513516 -0.044536397 -0.022400081 0.020571016
000170 e7 66 3a bd 0a c1 5f 3e 36 49 3c be 36 d4 f5 bd
       -0.04550829 0.21850982 -0.18387303 -0.12003367
000180 6a 55 f4 3d 58 b2 2a 3e 4c a3 71 bd d8 b9 d3 3d
       0.11930354 0.16669595 -0.058993623 0.10338181
000190 c2 1c 0e be 10 fd a3 bd f6 06 5c bc 0c 7b 31 3d
       -0.13878158 -0.08007252 -0.013429394 0.043330237
0001a0 d8 47 a5 3d 26 98 8e 3d 66 67 92 bd ad 51 91 bd
       0.08070344 0.06962614 -0.07148628 -0.070956565
0001b0 2b a7 16 3d e0 fa a4 3d d1 e5 51 be 60 c3 05 3c
       0.036780518 0.08055663 -0.20497824 0.008164257
0001c0 18 61 4e 3d 4e 87 82 3d b6 c6 32 bc 78 4a 5d be
       0.050385565 0.063734636 -0.010911634 -0.21610439
0001d0 3e 38 a5 3d 5c 65 0b 3e a8 60 2a be bc 84 d3 3d
       0.08067368 0.13612884 -0.16638434 0.103280514
0001e0 f2 31 32 3c 10 fe e2 3d 88 a5 21 3e 58 40 51 bd
       0.010876166 0.11083615 0.15785801 -0.051086754
0001f0 4a 5d bc 3d ce 2e 94 bd 4f c5 c0 3c 59 f6 39 3e
       0.09197481 -0.0723549 0.023531584 0.1816038
000200 65 46 19 3b 10 0e 5f 3c 4d fb 20 3c 93 82 5c 3d
       0.0023387906 0.013614193 0.00982554 0.053835463
000210 84 e0 28 bd 10 2e 6f 3d e0 aa a6 3b 87 14 b8 3d
       -0.04122974 0.058393538 0.005086288 0.0898829
000220 15 f6 bd bd e2 d5 ac 3c 26 cf a2 3d fe b4 d3 3d
       -0.09275452 0.021098081 0.07949667 0.10337256
000230 30 ef 4e bd a4 e0 dc bb 68 bc 9a bd 54 33 18 3d
       -0.050521076 -0.0067406464 -0.07555467 0.037158325
000240 90 66 55 3e 62 64 4e 3e 30 41 e8 3c 98 7c e9 bd
       0.20839906 0.2015548 0.028351396 -0.114007175
000250 d9 21 1b 3e 2a f5 86 bd 92 eb 5f be 45 c9 c6 bd
       0.1514963 -0.0658973 -0.21867207 -0.09706358
000260 76 6a 44 bd 15 dd 6a bc 9e 91 c8 3c b7 7d 05 be
       -0.04795309 -0.014334937 0.024483498 -0.13036238
000270 c2 df 9b bd 40 eb 0c bc 09 1f 15 bc cd de b6 bd
       -0.07611038 -0.00860101 -0.009101638 -0.089292146
000280 66 15 87 3d d9 26 c3 3d e0 7b f8 bb de 81 93 bd
       0.06595878 0.09528894 -0.0075831264 -0.072025046
000290 8a 80 58 bd 8c 31 ff bd d9 47 02 3d 74 a1 86 3d
       -0.05285696 -0.12460622 0.0318068 0.065737635
0002a0 fd 9f ff 3d 2f 96 37 3d 19 76 98 bd f0 a7 42 39
       0.12481687 0.04482096 -0.074444 0.00018563843
0002b0 5d 8c 3e 3e 88 3d 5c bd 89 6b d6 bd b0 e7 93 3d
       0.18608232 -0.05376962 -0.104697295 0.07221925
0002c0 c8 1e ed bd ac 0b 1a bd 10 ad b7 bd 40 fb ab bd
       -0.11578137 -0.037608787 -0.08968556 -0.083975315
0002d0 40 14 1b 3c 57 b3 82 bc f0 c8 bf 3b 80 ea d3 3a
       0.009465277 -0.015954657 0.005852811 0.0016167909
0002e0 6e 97 ed bb 00 d4 c2 ba d2 63 58 3e e0 d7 fd bc
       -0.007250718 -0.0014864206 0.21131828 -0.030986726
0002f0 b3 39 05 3e 0c db 72 bd c5 71 f0 3d 90 b7 b4 3d
       0.13010292 -0.05929093 0.1174045 0.08824074
000300 8e ec 82 bc ac c4 b0 bd b8 fa ec 3d 44 17 25 3e
       -0.015981939 -0.08631262 0.11571258 0.16122156
000310 d9 06 59 be 4f 38 e5 bd c4 9f e2 bd e4 ac c1 3d
       -0.21194018 -0.11192381 -0.11065629 0.094568044
000320 4f a6 e1 3c d5 67 d1 bd 2d e0 cf 3d c2 01 19 3d
       0.027545122 -0.102248825 0.1015018 0.037355192
000330 3c 9e c1 bd 7c 65 21 bc c4 cd d3 bd dc 98 91 bc
       -0.09454009 -0.009850856 -0.10341981 -0.017773084
000340 12 ed 08 3e 50 d4 e0 3d fe 9d d7 3d aa 7f 15 be
       0.13371685 0.109779954 0.105281815 -0.14599481
000350 af e8 9f 3d ee 79 70 bd 7b f9 4b be 2b 1c cf 3c
       0.07808053 -0.05871003 -0.19919388 0.025281986
000360 5a 03 28 3e 87 7a ca 3c 3c 1f c8 3d 5d 46 36 bb
       0.16407529 0.024716629 0.097715825 -0.0027812936
000370 7d 03 b7 bd e9 0f 23 3e 88 b3 62 be 9d 0e 65 be
       -0.08936212 0.15924038 -0.22138798 -0.22368856
000380 a4 0c 48 3d 7b 7e 67 3e 06 1d ea 3d 30 7f 06 3d
       0.04884018 0.22606842 0.11431317 0.03283614
000390 d3 67 18 be 9c 76 e5 3d b1 8f b2 3d 80 2d a2 3a
       -0.14883356 0.112042636 0.08718813 0.0012373179
0003a0 68 3a 2c 3e f5 e3 85 3d f2 24 0c ba 59 02 2b 3d
       0.16819155 0.0653762 -0.00053460815 0.041750286
0003b0 c4 2d 4c 3e 9e 5b f3 bd db b9 fa bd 94 b9 39 bd
       0.19939333 -0.11882709 -0.1224248 -0.045342997
0003c0 da e9 ca bd 30 e6 54 3d 90 ef 77 bd ff 7e 5b be
       -0.09907885 0.051977336 -0.0605312 -0.21435164
0003d0 4c ef 0c 3d 57 84 78 3c 9c d6 51 be 4c 48 7d bd
       0.0344079 0.015168271 -0.20492023 -0.061836526
0003e0 93 9a 57 be f0 c9 7a bc f4 ea e2 bc f0 4f f6 bd
       -0.21055059 -0.015306935 -0.027699925 -0.120269656
0003f0 db e7 ff 3d e0 06 33 bd a7 39 1e bc 50 ae 11 3e
       0.12495395 -0.04370773 -0.0096573 0.14226651

fc.bias f4 [18]
000000 c4 14 05 3d 6e fe 04 3c 22 28 06 3e 00 f6 4c 3d
       0.032490507 0.008117301 0.13101247 0.05003929
000010 bc cd 21 3c 06 58 41 3e 36 8a f9 3c dc 0f 16 3e
       0.009875711 0.18881235 0.030461412 0.14654487
000020 31 bb 2a 3b a7 81 94 bd f3 18 0e 3e 49 d1 eb 3b
       0.0026051516 -0.07251292 0.13876705 0.0071965796
000030 b2 84 f3 3d 17 43 d2 3d 89 8d f9 3c fc 22 c6 bc
       0.11890544 0.102667026 0.030462997 -0.024186604
000040 ca fb 34 3d 5a 7f c9 3d
       0.044185437 0.098387435
