radflux_realtime_lstm/best_radflux_model_mt.pt (torch, 159761 bytes, 8 tensors)

conv1.weight f4 [64, 10, 7]
00000000: db1f a0bd 7bde a1bd 06c2 f83c 13d8 e3bd
00000010: 85eb 7cbd 0cb8 dbbd 6302 883d 0e3b f13c
00000020: 008a 85bd add6 41bd ff86 d93d 4ce0 98bd
00000030: d88c 983c a197 87bd 151a 203d 2a4f 61bc
00000040: 21f0 2abb 2cc0 bbbd 7377 29bd 3fae 97bb
00000050: 6605 f1bd 9b92 873c d85b a43d d52f 1f3d
00000060: bba1 853d ac4b dbbd 0c2c c2bd 8922 90bd
00000070: e6ed 9cbd f64c b63d bced 89bd 4c76 4d3d
00000080: 140d c13d 5dc7 8a3d 1e3b 173d a038 3ebb
00000090: de2d 023d f707 3b3d c7b9 b23b 4e99 18bd
000000a0: dfbe b93d fb00 993d f1eb 0dbc e4d4 90bd
000000b0: 81f1 243d b541 36bd f344 b53d df29 4fbd
000000c0: aa15 79bd 854f 9a3c 467b 80bd aef6 90bd
000000d0: 603c 9f3d d84c df3c 8517 7c3d 526b 393d
000000e0: 703f a03d af4c de3d 0e4a a3bd 9837 073d
000000f0: fb76 633d 8b68 983c ca75 6cbc cc8a 823d
00000100: f5da c1bd 9674 a43d 377a babd 3a9e 983c
00000110: 6bf4 a7bc d3fc 923d 4a71 e5bd 9db0 803d
00000120: edc1 45bc 3036 afbd 7d98 b53d 0505 d83d
00000130: 7191 ab3d 80aa a23d 5448 8a3c db8b 81bd
00000140: c5ad d83d 4d7d b03d 33db 7bbd 1fdf e9bc
00000150: 9c4f f8bd 3849 f4bd 86a6 9c3d 35e9 163d
00000160: 455a 233d d87f d1bd d295 b43d 9eb6 dfbb
00000170: 3718 9cbd cae4 3cbd 21fb 643d e6f3 1d3c
00000180: ec81 3d3b 818f a53c bfe7 61bd d3ab cdbd
00000190: a7f3 c73c ee38 75bd 0e06 e4bc d570 cf3c
000001a0: 2725 933d 2b6a cfbc 7418 f4bc 30d7 a63d
000001b0: deae 083d 0e80 c23d d4ea 96bd 65f2 da3d
000001c0: 74f1 4f3d 578a bdbd c6d9 f5bc 10ce e93d
000001d0: 205b 883d a19e c73d cd88 b43d 76ff ddbd
000001e0: 29ec d0bc ef22 93bd 8ff9 8a3d ef9b cc3d
000001f0: b633 7b3d d77a a73d 92eb a43c 4549 d93c
00000200: f0d9 a6bc d3ad 793d c946 8cbd 0b8a 7a3d
00000210: 7780 2abd 1e44 e8bd 4024 50bd ab56 ce3d
00000220: 0260 b63d 6020 54bd 6fc3 5a3b 5363 423c
00000230: c19e fd3d 7c60 e1bd 174c 3fbd 8189 abbd
00000240: e98c 463d 7109 f53d afcd ebbc 2aa5 863c
00000250: 1ff2 1ebc 782f b2bd b5ae 2dbd 3b32 dc3b
00000260: bd77 01bd 6a29 b13d b362 633d 9e15 28bd
00000270: 25b4 b33d 0795 97bd d198 bfbd fc2b bf3d
00000280: 43dc 9abd e37a a7bd be4f a3bd e5b0 da3d
00000290: 042d 43bd 6cba 22bd 108e f13d ff2e 82bd
000002a0: 504b fc3c ed89 c83d 7e44 4bbd 0f8c 31bb
000002b0: c5a7 d43d d481 0b3d 7b0e 29bd 0b94 26bd
000002c0: cc6a 35bd 3df3 6cbd 6447 053e 7143 793d
000002d0: b2b3 103d f3ba b53c 6dec a0bd 0dd2 88bd
000002e0: f0ca 17bd af5b 803d 5a57 6c3d 9f8d 81bd
000002f0: 453e db3c 2039 eabd 5114 bb3d 3d54 db3d
00000300: a9ee 3d3d c085 b2bd d993 4c3d 4bcb b5bd
00000310: 4cf8 cdbc 26f7 b63a b01b 633d edf8 e6bc
00000320: 468a acbb 1d93 b3bd 6a6a e23d 32ec 353d
00000330: ea35 bb3d 577b 6abb 7630 bc3d e002 e6bd
00000340: 215b 71bd cad9 a83d edfe e43c 5b66 c3bd
00000350: d724 233c 4ea5 8bbd 14fc 8abd 9caa dcbd
00000360: 4d13 723d ab49 75bd 3bce 1bbd 7ef3 d03d
00000370: a101 823d 7320 36bd 1f25 4abd 5c4a ba3d
00000380: e9ca 42bd 44ab a93d ac76 d23c f01e e13d
00000390: 1825 eebd c624 4fbd 2b61 393d 99f5 223d
000003a0: 7629 b3bb bc82 92bd 5a52 9bbd 9bf1 30bb
000003b0: fac2 093d 7508 e3bd 4608 bb3d b4d5 c4bd
000003c0: 76ec 5abd 164f 72bd 31fb a63d 7ce3 a63d
000003d0: 2965 203b 1063 f53d af7d 15bc 5749 8cbd
000003e0: ceb4 663c cf53 e1bc 62ce 373c 927a a9bd
000003f0: 4533 59bd c6df 1a3d 6063 d0bd e81e eabd
-0.07818576 -0.07903763 0.030365955 -0.11125197 -0.061748046 -0.107284635 0.0664108 0.029447105
-0.06520462 -0.04732387 0.106214516 -0.07464656 0.018621847 -0.06620718 0.039087374 -0.013751784
-0.002608307 -0.09167513 -0.04137368 -0.004628926 -0.11768608 0.0165494 0.0802533 0.038863976
0.06524988 -0.10707793 -0.094810575 -0.07037837 -0.07662563 0.08901398 -0.06734797 0.050161645
0.094263226 0.06776307 0.036921613 -0.002902545 0.031782024 0.045661893 0.0054542753 -0.037255578
0.09069609 0.0747089 -0.00866221 -0.07071856 0.04026938 -0.044496257 0.08851042 -0.05057704
-0.060811676 0.018836746 -0.062735125 -0.070783004 0.077751875 0.027258322 0.061545867 0.045268364
0.078246 0.1085447 -0.07973109 0.033012003 0.05553339 0.018604537 -0.01443238 0.0637413
-0.09465591 0.080300495 -0.09105342 0.018630136 -0.02050229 0.07177129 -0.11203249 0.06283686
-0.012070161 -0.08555257 0.088669755 0.105478324 0.0837735 0.079426765 0.016880192 -0.063255034
0.10580019 0.08617649 -0.06148834 -0.028548775 -0.12124559 -0.11928028 0.07648949 0.036843497
0.03988101 -0.102294624 0.088176385 -0.0068271896 -0.07621806 -0.046116628 0.055903558 0.009640669
0.002891655 0.02021003 -0.05515265 -0.100425385 0.024408175 -0.059868746 -0.027834918 0.025322357
0.071848206 -0.02531918 -0.029796816 0.081465125 0.03336989 0.09497081 -0.07369009 0.10690764
0.050767377 -0.09254902 -0.030011069 0.114162564 0.06658006 0.09747053 0.08815155 -0.10839741
-0.025503235 -0.071843974 0.06785881 0.099906795 0.061328612 0.08177727 0.02013186 0.026524195
-0.020367593 0.060956787 -0.06849439 0.061166804 -0.04162642 -0.11341117 -0.05081582 0.10075124
0.08905031 -0.051788688 0.0033380648 0.011864501 0.123837955 -0.11004731 -0.046703424 -0.08375836
0.048474226 0.119646914 -0.028784601 0.016436178 -0.009701281 -0.0870046 -0.04240294 0.006719855
-0.031608332 0.08650477 0.05551405 -0.04103624 0.08774594 -0.074014716 -0.09355319 0.09334561
-0.07561543 -0.08177736 -0.07974194 0.10678271 -0.047650352 -0.039728567 0.117946744 -0.0635662
0.03079763 0.09791932 -0.049625866 -0.0027091538 0.10383562 0.03405936 -0.041273575 -0.04066853
-0.044291303 -0.057849158 0.13015515 0.060855333 0.03532762 0.02218387 -0.07857595 -0.06680689
-0.03705877 0.06267487 0.057700492 -0.0632584 0.02676309 -0.11436677 0.091347344 0.107094266
0.046370182 -0.08716917 0.049945686 -0.08876666 -0.025142811 0.0013959154 0.055446327 -0.028194869
-0.005265507 -0.08768294 0.11055453 0.044414707 0.09141143 -0.0035779083 0.09188931 -0.11231017
-0.058924798 0.08244665 0.02795359 -0.09541007 0.009957514 -0.06818639 -0.06786361 -0.10774729
0.059100438 -0.05988471 -0.038038474 0.102026924 0.06347967 -0.04446454 -0.049351808 0.09096214
-0.04755679 0.082846195 0.025691353 0.10992229 -0.11628169 -0.05057218 0.045258682 0.039785
-0.005467589 -0.07153842 -0.07584067 -0.0026999477 0.03363321 -0.110855974 0.091324374 -0.09611073
-0.053448163 -0.059157453 0.0815338 0.08148858 0.0024474359 0.11981785 -0.009124204 -0.06849926
0.014081193 -0.027505783 0.011218639 -0.082753316 -0.05302741 0.037811063 -0.10175204 -0.11431676

conv1.bias f4 [64]
00000000: 2657 b23d ea39 a8bd 7127 9fbd d9e6 b03d
00000010: 225d b43a c2e0 1dbd edbc 903c 683e e7bc
00000020: 659d a53d 10bb a53d 7e5c 46bd e7f4 6ebd
00000030: 2180 ffbc e812 e1bd 1075 f23d ffbd 62bd
00000040: bd85 4ebd ca66 fcbd a5ed 9c3d e5fb d73d
00000050: 37ce 6cbd d4c3 f0bd 2848 d73d 5ffc 7b3d
00000060: 1962 ccbd 66c5 38bd 10f7 c63d ee1f 79bd
00000070: 671d 4a3d 71e0 94bd 608d a23d e0d3 313d
00000080: 299b 103c 7b10 ef3c 9e08 da3d 78e7 7a3d
00000090: bcaa ce3d 9b96 8bbc d28c 933d 67b7 bcbd
000000a0: d51f c0bd 6f37 95bc f90f e23d fcdb 8cbd
000000b0: 3c72 cb3c ceba 8cbd a21f 3a3d 9346 c8bd
000000c0: a16b f3bc 334d dfb9 5e57 a13c c2dc 6ebc
000000d0: 62b4 f13d 5ad6 0fbd 212a dfbb 2428 b03d
000000e0: fef3 bc3d 4762 f83c 78bd a4bd 9e53 d4bd
000000f0: fc7a f5bc 5471 2bbd 3e6c 46bd 32a1 91bd
0.087080285 -0.08214171 -0.07771195 0.08637781 0.0013760666 -0.038544424 0.017668212 -0.028228
0.08086661 0.0809232 -0.04842805 -0.058339026 -0.031189026 -0.10989934 0.11838734 -0.055356976
-0.05042051 -0.12324293 0.076625146 0.10546092 -0.05781385 -0.11756101 0.105118096 0.061519977
-0.09979648 -0.04511013 0.09715092 -0.060821466 0.049344447 -0.07269371 0.079371214 0.04341495
0.008826056 0.029182663 0.10646175 0.061255902 0.10091159 -0.017039588 0.07204594 -0.09214669
-0.093810715 -0.01821491 0.11038203 -0.06877896 0.024834745 -0.06871568 0.045440324 -0.09779086
-0.029714407 -0.00042591392 0.01969498 -0.014579 0.118019834 -0.03511653 -0.006810442 0.08601406
0.09226225 0.0303203 -0.08043951 -0.10367511 -0.02996587 -0.041856125 -0.04844307 -0.07110824

lstm.weight_ih_l0 f4 [256, 64]
00000000: 0017 f6bb a021 b23d 6cbf 163d 9471 cebd
00000010: 00e4 7dbc 4840 c7bc 3870 d6bd 0402 8ebd
00000020: 5a30 8b3d 58be aebc 481f 48bd d001 403c
00000030: 841f 7fbd 5478 a1bd 7290 c1bd 8033 683c
00000040: 00f4 dd3b 5066 293d 5a2c d33d 8884 aa3c
00000050: be31 bc3d 042e 9e3d 5808 0ebd 260c bfbd
00000060: 8687 833d 1011 053d 24b7 a03d 8452 b8bd
00000070: d857 72bd 8e64 adbd 26a1 f83d 0af6 85bd
00000080: f009 65bc e859 06bd debb a2bd 54e8 82bd
00000090: 24eb 64bd 708e 403d fa81 8bbd 94b5 76bd
000000a0: 48e8 2cbd 8064 d0bc 4047 653b d874 993c
000000b0: 7e18 db3d ae0c f1bd 5099 5cbc c4b1 24bd
000000c0: 7866 b2bd 9ac6 c23d 0068 213c 1cba 15bd
000000d0: a6b2 dc3d de6d f73d e010 48bc 609e e5bd
000000e0: 9822 82bd f8d2 6abd 9a73 dc3d 7aac 823d
000000f0: 5001 ccbc 98ca aebc d634 bfbd 5899 f8bd
00000100: d82f a4bd 089f 23bd 8cf6 00be 051e b3bd
00000110: ad1d 86bd d4a7 84bd b029 f3bb 86b2 15bd
00000120: a63a 963c a0b0 9abc 4fff e6bc c2fe 3b3d
00000130: 59eb f1bd 762e babc 6622 7cbd a653 dbbc
00000140: 6c08 823c 279b b53c 3a25 9fbd 4a67 bfbd
00000150: c7b3 993d af03 e33d 63be ce3d f01d afbd
00000160: 6e91 dcbc 10a5 acbc a2f5 90bc 92e3 b8bd
00000170: 68bd 5cbd 49ed c2bd a211 e3bd d734 b9bd
00000180: d0ee 923d a4c8 853d 1c33 4b3d 3ffd 45bd
00000190: 5e87 ca3d d4bc 35bd 905b 483c fd4c c7bd
000001a0: fa49 e5bc 0a20 103d a095 343d 0cf3 c7bd
000001b0: 2d9a 58bb 5c72 8a3d 3c8b bdbc 5550 a03d
000001c0: cdbe de3c ea3c 76bc a88f 0a3d 5d83 af3d
000001d0: 1b83 dc3d 1529 833d aa84 9dbd b79c c73d
000001e0: 4f7b dbbd ff1d 5f3d 5e94 eabd fe10 a73d
000001f0: 8328 18bd 4b4b 7dbd a747 76bb 390a 463d
00000200: 75b8 b4bd ad57 12bd 942f b53d 1a51 1c3d
00000210: afca 923d a44f 84bd 3aad cabc c36d d93d
00000220: 08bd bd3d 0181 be3c 352d b0bd bf5f c8bb
00000230: ec06 143d 1e3e 203d 3fe0 6fbd 179d d03c
00000240: fd0b ab3d c673 e0bd ccf5 573d 669a 91bd
00000250: 73dc 8bbd 1d89 573d 5ee6 20bd 02d3 473d
00000260: c99c f23d 28fe d2bd ba87 81bd a637 93bd
00000270: 4eec 60bd d1b8 a53d ff1d 8bbb 7fb0 b03d
00000280: e019 c83b b991 eabd 1c60 ae3d c4fd c1bd
00000290: 1848 dcbc 80bd 47bd 13d8 bdbd 28d7 023d
000002a0: 79c5 cf3c b79f bebc 346a 023e 6317 c03d
000002b0: 540b 553d 0460 c53d c025 f43d 3192 28bd
000002c0: b249 c43d 8b23 4f3c 6004 f83b cee7 b4bd
000002d0: 9954 a5bc 7785 5a3d 2524 553d baaa 44bd
000002e0: e0d5 a5bc 468a 633d 0fff b6bd c7bc 863d
000002f0: d6e3 c2bc ede5 e6bd 6191 a13d 66a3 79bd
00000300: 00e0 eb3d 70e1 013c bcf7 0a3d 480f 25bd
00000310: 106b c8bc ac59 5e3d 3095 d33d bc46 50bd
00000320: 18c2 903d c07c 943b 241a b43d c824 b33c
00000330: 148b 823d 506d 683d 62ae fbbd c4d6 f5bd
00000340: 0021 fabd e05a 313c 3016 93bc 627b a63d
00000350: 68d7 ef3c 0802 dbbd 14e3 b93d 1881 ed3c
00000360: ec3d 373d 00fa aa3d 289d f7bc 20dd aabc
00000370: 6e42 8e3d 1844 9dbd f48c 283d 76ea b7bd
00000380: 4097 72bb 2816 933c c215 ba3d 70dd 8cbc
00000390: 5e4c ebbd ccb9 7dbd 5079 463c f8b4 ccbd
000003a0: 10ce 7fbc 8218 ba3d 90fe d93d 0c4d e8bd
000003b0: cc3d 50bd 3491 dabd 60a3 163d a820 9d3d
000003c0: a88d 873c 3428 023d f42b 28bd f0e2 98bc
000003d0: 84cd 453d 803f f33a 80d0 d9ba 00ce cdbb
000003e0: c837 3bbd 6040 9e3c 9e4a d93d 8820 623d
000003f0: a0a8 9cbd e4a4 fc3d 604c debd c8ec dbbc
-0.007510066 0.0869782 0.036803648 -0.10080257 -0.015496254 -0.024322644 -0.10470623 -0.06933978
0.06796332 -0.021330997 -0.048857957 0.011719182 -0.062285915 -0.07884279 -0.09451379 0.014172435
0.006773472 0.04135734 0.10311194 0.020815149 0.09189175 0.077236205 -0.034675926 -0.09328489
0.064223334 0.032486975 0.07847431 -0.090001136 -0.059165806 -0.08466445 0.121401116 -0.06541069
-0.01397942 -0.032800585 -0.07945989 -0.06391969 -0.05588831 0.04701084 -0.068119004 -0.06023176
-0.04221371 -0.025438547 0.0034985095 0.018732473 0.10698031 -0.117699966 -0.013464287 -0.040208593
-0.087109506 0.095105365 0.009851456 -0.03655444 0.10776262 0.120815024 -0.012211055 -0.11211848
-0.063542545 -0.0573301 0.10764237 0.063805535 -0.02490297 -0.021336839 -0.093362495 -0.12138623
-0.08016938 -0.039946586 -0.1259405 -0.0874596 -0.06548629 -0.06477323 -0.007420741 -0.036547206
0.018338513 -0.01888305 -0.028197912 0.045897253 -0.11812467 -0.022727232 -0.061556242 -0.026773285
0.015873156 0.022168709 -0.07770772 -0.09345873 0.07504993 0.11084687 0.10094907 -0.08550632
-0.026924815 -0.021074802 -0.017695252 -0.090277806 -0.05389157 -0.09517915 -0.110873476 -0.090432815
0.07174456 0.0653241 0.04960929 -0.048337217 0.098891005 -0.044369534 0.012228861 -0.09731481
-0.027989376 0.035186805 0.044088006 -0.097631544 -0.003305088 0.067600936 -0.023137681 0.07827822
0.02719059 -0.0150291715 0.033828408 0.085699774 0.10767194 0.0640432 -0.07691319 0.09746688
-0.107168786 0.054471966 -0.1145408 0.08157538 -0.03714801 -0.061839383 -0.003757933 0.048349593
-0.08824245 -0.035728145 0.088469654 0.038163282 0.07167565 -0.06460503 -0.024740804 0.106166385
0.092645705 0.023254873 -0.086023726 -0.0061149294 0.036139414 0.03912174 -0.058563467 0.025465531
0.08351896 -0.10959582 0.052724645 -0.07109527 -0.06829157 0.052620996 -0.039282195 0.048785217
0.11846311 -0.10302383 -0.06324716 -0.071883485 -0.054912858 0.080918916 -0.004245519 0.08627414
0.0061066 -0.11453576 0.08514425 -0.0947223 -0.026889846 -0.048764706 -0.092697285 0.03194347
0.025362717 -0.023269517 0.12735826 0.09379461 0.052012756 0.09637454 0.11921263 -0.041155044
0.09584369 0.012642751 0.007568881 -0.08833276 -0.02018194 0.05334994 0.052036423 -0.04801438
-0.020243585 0.05555179 -0.08935367 0.06578975 -0.023790281 -0.112743236 0.07889057 -0.060946845
0.11517334 0.007927284 0.033927664 -0.040297776 -0.024465114 0.054284737 0.1033119 -0.050848708
0.070682704 0.004531473 0.087940484 0.021868125 0.06374183 0.056744874 -0.1228912 -0.12003854
-0.122133255 0.010824889 -0.017954916 0.08129002 0.029277518 -0.10693747 0.09076515 0.02899222
0.044736788 0.08348465 -0.030226305 -0.020857394 0.06946264 -0.076790035 0.04115005 -0.08980267
-0.0037016422 0.0179549 0.09086181 -0.017195433 -0.11489175 -0.061944768 0.012113884 -0.099954545
-0.015613094 0.09086706 0.10644257 -0.113428205 -0.050840184 -0.106722265 0.0367769 0.07672244
0.01654704 0.031776622 -0.041057542 -0.0186629 0.048291698 0.0018558353 -0.0016617924 -0.0062806606
-0.045707494 0.019317806 0.10609935 0.055206805 -0.0764935 0.12336138 -0.10854411 -0.026846305

lstm.weight_hh_l0 f4 [256, 64]
00000000: f89f 663d 1075 9fbc 6c54 933d 34f0 953d
00000010: b477 76bd d086 423d 9e78 8dbd a874 6d3d
00000020: 103a 3dbd 2483 98bd e04a fdbc e02e a9bb
00000030: 24f7 8b3d be03 ab3d fe78 c6bd 602b 923c
00000040: b825 8bbd 0c83 b43d 4029 743b 4ca1 7c3d
00000050: 5069 023c aa77 8d3d 8ad2 81bd 9ed5 a63d
00000060: 5efe eb3d 7ea6 e93d b8ea f1bd 4033 2bbb
00000070: e253 82bd c08d adbc 7418 d43d 3a4a dabd
00000080: 34eb 46bd 42ab afbd c872 9bbd d8b3 e2bc
00000090: 34ae 953d be43 9c3d 1e7b d63d 309b b93c
000000a0: 1c28 cabd 8075 c4bb 4ef0 c4bd 085d e8bd
000000b0: 0098 59bb 1ed0 a2bd 60c9 d3bd b851 7b3d
000000c0: 7e25 843d 1c34 ba3d e693 acbd 5c82 dbbd
000000d0: 7871 be3c acaf a8bd 3c90 ee3d 140c adbd
000000e0: 9018 453c f019 e03d 303c 4abc c086 f3bc
000000f0: 34b2 1d3d f07b f23d 804f d0ba e079 f6bb
00000100: 14bf 1c3d 4c22 d6bd 1c6e cabd d09c 29bd
00000110: 5988 e6bd 2b1b f13d b584 01bd a932 a33d
00000120: 82e1 f9bb 0cb7 263d 8075 f3bd 0d2c 5b3c
00000130: f061 ac3d 5408 60bd 9838 e03c 885f e03d
00000140: 0e43 bc3d f756 fe3d 86dc 9f3d 4344 c53d
00000150: 2818 0dbd 1d96 e9bd 71de 03bd 3e71 8cbd
00000160: ac9c aabd caca e8bd 1a6a 9a3d 0ef9 cc3d
00000170: 8c47 0a3d 1178 84bd 88cb c6bd 5422 76bd
00000180: 8587 80bd 8079 783d 7f90 993b 1cdc dfbd
00000190: 85b9 f8bd aa04 e03d a2f8 c3bd 4f9c 60bd
000001a0: 2174 98bd 39f4 e4bd b0b6 fbbd 2801 163d
000001b0: 88ae cabd 4d6d 773d 5932 bcbd 5cc6 15bd
000001c0: 5741 efbd 401b 3abb 2f01 203d bca8 8ebd
000001d0: dc4e 473d 85c5 b43d bab6 893d 3710 b7bd
000001e0: 4c5d 74bd 313a cdbd 987c 06bd 68e0 afbc
000001f0: 6c1b dabb 86f6 fabd 40fc c5bd caa6 24bd
00000200: 002a 4bbc a203 ec3d 35a8 93bd 809b 1c3c
00000210: 0e4b 6a3d 10cb aebd b8f5 323d 98c5 96bc
00000220: a592 533d 5c0a d0bd 658a 6dbc bb23 543d
00000230: c822 94bd 24b4 9bbd badb fb3d 9bbb 26bd
00000240: 7a89 053d 8643 fcbc 481c 6ebd 4279 90bc
00000250: a07c 8d3b ec52 3b3a 66f5 1abd f79c 5fbd
00000260: 574e 97bd 8210 8cbc d606 933d c382 94bd
00000270: 96d1 f0bd 2902 32bd c6cf cebc 17b3 f73d
00000280: 2eb6 013e d03a a6bd 52fb 8d3d b401 993d
00000290: a523 823d 8f23 6ebb 2006 c5bd e4ea ee3d
000002a0: b34f 12bd 2adb 2dbd b820 39bd d857 02bd
000002b0: 1822 873c 8b8a 553d b0a8 433d e901 f03d
000002c0: ab6b a43d fc59 463d d183 a8bd cd19 a83d
000002d0: 80c4 71bd 50ea fb3d 3b74 e23d bd38 a0bd
000002e0: 019d 813d 4653 04bd 0682 4c3d 2ab5 e5bc
000002f0: d570 2f3d 6b5f 1c3c 94f3 f9bd 87e0 1d3d
00000300: ac13 7f3d d21f a73d 685f a93d f04a c6bc
00000310: 086c a83c 7805 b7bc bad8 ce3d 342d 753d
00000320: d003 533c 3850 523d 2cd6 88bd b4fb d3bd
00000330: 808f 31bc 18df 55bd 0070 5b39 ec82 c6bd
00000340: 6877 8ebc 20d2 fd3d 70b7 cdbc 4816 693d
00000350: 1a50 8e3d 2885 0fbd e675 f5bd 5036 73bd
00000360: ae84 ba3d 5046 80bc cc30 553d a84c 66bd
00000370: 5af3 a0bd f02d 8c3c 0465 e93d a4ac 2e3d
00000380: 0418 323d e8ae 20bd eed1 e03d 8026 543d
00000390: 90d4 f03d cc81 9b3d 22e4 f63d 7820 4e3d
000003a0: 04d2 64bd 4a41 98bd 8c4a 853d c829 143d
000003b0: f007 b63d a83d 953c 1cce 24bd 80e4 1a3b
000003c0: 50b7 ad3c 8c3a 013d ae96 f3bd 9c69 f5bd
000003d0: b017 16bd 4050 c3bb 6c3e e3bd f8c2 f8bd
000003e0: d2ee dfbd e01a 303c 3ac0 d7bd 209f 5d3c
000003f0: cc24 52bd d472 7ebd 284c ab3c 3e5a f3bd
0.0563049 -0.019465 0.071938366 0.07321206 -0.06017275 0.04749185 -0.069077715 0.05797258
-0.04619795 -0.07446888 -0.030919492 -0.0051630586 0.06834248 0.08350323 -0.09691046 0.017842948
-0.06794304 0.08814058 0.0037256032 0.061677262 0.007959679 0.0690759 -0.06338985 0.08146213
0.11523126 0.11408709 -0.11812347 -0.0026123077 -0.063636556 -0.021185756 0.103562266 -0.10658689
-0.04856415 -0.08577587 -0.07590252 -0.027673647 0.07308617 0.07630108 0.104727015 0.022657007
-0.098709315 -0.0059954524 -0.09616147 -0.11345869 -0.0033202171 -0.079498515 -0.103411436 0.06135723
0.064524636 0.0909197 -0.08426647 -0.107182235 0.023247465 -0.08236632 0.11648604 -0.08449569
0.012029782 0.10942447 -0.012343451 -0.02972734 0.038500026 0.118400455 -0.0015892833 -0.007521853
0.038268164 -0.1045576 -0.09884283 -0.041409314 -0.11256475 0.1177276 -0.0316207 0.07968647
-0.0076257596 0.04070191 -0.11887646 0.013377202 0.084171176 -0.054695442 0.027370736 0.10955721
0.09192477 0.12418931 0.078057334 0.096321605 -0.034446865 -0.11405585 -0.03219456 -0.06857537
-0.08330664 -0.11366804 0.075397685 0.10008441 0.03375964 -0.06468213 -0.09706789 -0.06009133
-0.06275848 0.060662746 0.0046864147 -0.109306544 -0.1214476 0.109383896 -0.09568907 -0.054836567
-0.07444025 -0.11179394 -0.12290704 0.036622196 -0.098965704 0.06040697 -0.091892906 -0.036566123
-0.116823845 -0.002839759 0.03906363 -0.06965777 0.04865919 0.08826736 0.067243055 -0.089386396
-0.059659287 -0.10020865 -0.032833666 -0.02146931 -0.006656101 -0.12254052 -0.096672535 -0.040198125
-0.01240015 0.115241304 -0.07209817 0.009558558 0.057200484 -0.08534825 0.043691367 -0.018404767
0.051653523 -0.10158226 -0.014498328 0.051791888 -0.072331965 -0.076027185 0.12297769 -0.04070626
0.03260181 -0.030793916 -0.05813244 -0.017635945 0.004317835 0.000714584 -0.037831686 -0.054593053
-0.07387989 -0.017097715 0.07179038 -0.07251503 -0.11758725 -0.04345909 -0.025245558 0.120947056
0.12667152 -0.08116686 0.06932701 0.07471028 0.06354455 -0.0036337113 -0.09620309 0.116658956
-0.03572054 -0.04244534 -0.04519722 -0.031822056 0.01649575 0.052134078 0.047768295 0.11719114
0.080283485 0.04842566 -0.08228267 0.08208046 -0.059025288 0.12300551 0.110573255 -0.07823322
0.06328774 -0.03230598 0.049928688 -0.028040487 0.042832214 0.009544234 -0.12204662 0.038544204
0.06227462 0.08160366 0.082701504 -0.024205655 0.020559326 -0.022341475 0.10099931 0.059857562
0.012879327 0.051346034 -0.06681475 -0.10350743 -0.010837436 -0.052214712 0.00020927191 -0.0969294
-0.017390922 0.12393594 -0.025111884 0.056906015 0.06948872 -0.035039097 -0.11985378 -0.05937797
0.09107338 -0.015658528 0.05204849 -0.05622545 -0.078589156 0.017111748 0.1139622 0.04264511
0.043479934 -0.039229304 0.10977541 0.05179453 0.11759293 0.07593116 0.12055232 0.050323933
-0.05586435 -0.07434328 0.06508359 0.03617266 0.08888233 0.018217877 -0.040235624 0.0023634732
0.021205574 0.031549975 -0.11893974 -0.11983034 -0.036643684 -0.0059604943 -0.110958904 -0.12146562
-0.10934223 0.010748595 -0.10534711 0.013526708 -0.051304623 -0.062121227 0.020910338 -0.11882447

lstm.bias_ih_l0 f4 [256]
00000000: 3484 4d3d e5a2 c9bd 20ab 9abd 7810 c43d
00000010: 68ba 36bd 2697 bf3d a168 d13d be6c b8ba
00000020: 7e8b 66bb dc56 51bd 3ed1 62bd 20f8 3cbc
00000030: 7a46 083d 6f58 ecbd ff8e 61bc b13a 8e3d
00000040: 87b0 18bd dc98 f33d d9e9 853d 29c6 033e
00000050: 3443 8dbd d020 c83d 2956 06be c73c b5bd
00000060: ce22 033e bc81 4abd 3542 ecbd a52f 8d3d
00000070: 3041 133c f1bc c9bd 2b43 c3bd 7e26 123d
00000080: b064 063e 3154 c8bd 8f20 893d c0f9 663b
00000090: e0f7 9d3d e5b1 bd3d e460 163d a676 623d
000000a0: aab9 d8bd 6637 a7bc d016 233d 4438 163d
000000b0: 9c20 6b3d 9a90 debd 970a c53d 2870 f8bd
000000c0: 52a2 c3bd 0269 ddbd beab 8a3d 81f1 88bd
000000d0: c0a6 4e3b 64a9 c03d a2bf 48bc 81de cebd
000000e0: f569 dcbc 24a0 0f3d 712e 3fbd 1df0 68bc
000000f0: 7f44 6d3d 6caf e23b 3bfd 043d 55cc a1bd
00000100: 86a1 ea3d 9322 35bd 5b71 f43d a425 933d
00000110: 3a95 493c 2344 0bbd 37b5 ebbd 2227 133d
00000120: 679c cd3c 04f5 883d 07a8 c33d 93c2 9fbd
00000130: 1600 4f3c 6a6b 993d f231 b03d e3f6 7c3d
00000140: 38d9 ebbc b49e 98bd fbb0 75bd bbf1 023e
00000150: a446 33bd b868 cabc 40a1 e6bc 3d2d 1e3d
00000160: dd25 aebd e543 e93b 4b85 5fbd 13bf adbd
00000170: 4c6e 9dbd e406 dbbd 5960 98bd 4e06 ad3d
00000180: cab6 10bc de17 8d3d 7c91 d83c d061 b83d
00000190: 58ee 1bbd 0d71 2f3c 7971 a93d f2ab 47bd
000001a0: 4f85 e3bd 7365 2e3d a2e0 a03d c216 803d
000001b0: d081 39bc a7ee e33d e03f 44bc 686b d53d
000001c0: 4bd4 ac3c a042 913b d9c9 6bbd 6476 47bd
000001d0: 6cce cebd d9d7 1dbd 9dec b7bd 049a c9bd
000001e0: fe6c dc3d 7579 ebbd f09d ac3c 5d96 7a3d
000001f0: b3b2 3f3d b031 483b cd59 e9bd 8282 e0bd
00000200: 26af 953d 0443 513d c0ff 693b 84f7 603d
00000210: 37af 12bd f886 0d3d f0ed a9bc 0918 873d
00000220: 88e6 c3bd 00ca c039 9912 debd 2929 343d
00000230: 2e86 d0bd ee9f fd3d 4080 b43b 1f5e 83bd
00000240: 37f3 efbd 1137 c63d 8c14 1fbd 6881 82bd
00000250: d430 c3bd 3fe8 e13b 35d9 80bb 4945 95bc
00000260: 73ef b5bd 9298 c33d 3cb6 a9bc 26b4 383c
00000270: f83c f7bc 37cb 993d 4c49 c6bd 1405 7cbd
00000280: e73a acbd 60e6 91bd 2ab3 a23d 8856 67bd
00000290: a858 ae3c 8001 c83d d34e 193d 122c db3d
000002a0: 4e67 f53d 3d4c c2bd 5e9f c63d a08f 4fbc
000002b0: 1cfb 4dbd 66fd acbd 1d21 003e 38d0 fcbb
000002c0: a285 5fbd 9436 26bd 90e4 b3bd dc57 ef3d
000002d0: d65e a1bd dd21 683d d8c1 92bd a276 debd
000002e0: 8474 1d3d 3276 a5bc 04cd 823d a1a0 b8bd
000002f0: 8053 bdbb 69b0 c83d 1ef9 ebbd 68d8 e63d
00000300: ccd9 0dbd 0846 ffbb 15dd af3d 6851 9fbd
00000310: 7a50 f5bd 4d09 8dbc f4b4 d9bc 4c0c 6bbd
00000320: 8ccd 38bd f0fe 433d f56e 96bd 18d3 363d
00000330: 5eb6 aebc 3426 c5bd ea5e 55bc c06d 273d
00000340: a4ad 123d 8fce 73bc 9dad bc3d 06dd 8dbc
00000350: d11e 203d ced5 57bd 88a0 21bc ef7e 99bc
00000360: e468 043e 5211 24bc fc24 9d3b 6155 913d
00000370: 5a35 ccbd 39ef 733d 349f 213d bc39 933d
00000380: f09a 313d 4b94 debd 943b dd3c 52d1 d9bd
00000390: 5437 b13c e232 96bc 9746 a6bd 3666 d4bd
000003a0: e0df ac3d 225c 343d 70ea 37bd f0a2 383d
000003b0: 833c a63d 906c 1b3c c702 b33d 89fa 98bd
000003c0: 0b58 ce3d 56d5 f7bd 5bbd eebd b066 e5bc
000003d0: c05f 76bd d4dc e43d 816d 9c3d 6c99 5bbd
000003e0: 18ef d13d 9732 91bd b42d d3bd d10c 023e
000003f0: 2e06 b6bd 252a 62bd 80f7 4d3d 28e0 81bd
0.050174907 -0.09845523 -0.07552171 0.09573454 -0.044611365 0.09355001 0.102250345 -0.0014070494
-0.0035178359 -0.051108226 -0.05537533 -0.011533767 0.033270337 -0.11540305 -0.013767003 0.06944788
-0.037277725 0.1189439 0.065387435 0.12868561 -0.068975836 0.097718835 -0.13118805 -0.08849483
0.12806246 -0.04944013 -0.115360655 0.06893853 0.00898771 -0.09850491 -0.09534296 0.03568124
0.13124347 -0.09781683 0.06695663 0.0035244077 0.07713294 0.09262446 0.036713496 0.055288933
-0.105822876 -0.020412158 0.039816678 0.036674753 0.057404146 -0.10867424 0.096211605 -0.12130767
-0.095524445 -0.10811044 0.067710385 -0.06686688 0.0031532496 0.09407309 -0.01225272 -0.10101033
-0.026905993 0.03506483 -0.04667515 -0.014217404 0.05792665 0.0069178846 0.032468062 -0.07900301
0.114565894 -0.044222426 0.11935683 0.07184914 0.012303645 -0.034000527 -0.11509173 0.03592599
0.025098993 0.06687358 0.09553533 -0.07800784 0.012634298 0.07491191 0.08603276 0.061758887
-0.028790101 -0.07452145 -0.059983235 0.12787525 -0.04376854 -0.024708137 -0.028153062 0.03861736
-0.085033156 0.0071186894 -0.054570477 -0.0848371 -0.07687053 -0.10694674 -0.07440252 0.08448468
-0.008832643 0.06889318 0.02643656 0.09003031 -0.0380691 0.010708106 0.08273596 -0.048747964
-0.11109411 0.04257722 0.07855345 0.06254341 -0.011322454 0.11129504 -0.01197812 0.10420877
0.021097323 0.004432991 -0.057565544 -0.04869689 -0.100979656 -0.038535926 -0.08980677 -0.09843829
0.10762976 -0.114977755 0.021071404 0.061178554 0.04680128 0.0030547194 -0.11394081 -0.109623924
0.073087975 0.0510893 0.0035705417 0.05492355 -0.03581163 0.034552544 -0.02074334 0.06596381
-0.09565455 0.00036771595 -0.10843391 0.043984566 -0.10181843 0.1238402 0.0055084527 -0.064144365
-0.117163114 0.09678472 -0.038837954 -0.063723385 -0.095307976 0.006894141 -0.003932143 -0.018221514
-0.08883562 0.09550585 -0.020716779 0.0112734195 -0.03018044 0.07509463 -0.09681949 -0.06152828
-0.08409672 -0.07124019 0.07944329 -0.056479007 0.021282509 0.09765911 0.03742869 0.10701765
0.119825944 -0.094871975 0.09698366 -0.01266852 -0.050288305 -0.084467694 0.12512632 -0.0077152513
-0.0545708 -0.040579394 -0.08783829 0.1168668 -0.07879417 0.05667292 -0.07165879 -0.10862471
0.038441196 -0.020197961 0.0638676 -0.090150125 -0.0057777762 0.097992726 -0.11522125 0.11271745
-0.034631535 -0.007790331 0.0858709 -0.07779199 -0.1197824 -0.017216349 -0.026575543 -0.057384774
-0.0451179 0.04785055 -0.07345382 0.04463491 -0.021327194 -0.09626427 -0.013023118 0.04087615
0.035810128 -0.01488079 0.092128016 -0.017317306 0.03909189 -0.052694134 -0.009864934 -0.018737284
0.12930638 -0.010013895 0.0047956686 0.07096363 -0.099711135 0.059554312 0.03945847 0.07188746
0.04336065 -0.108681284 0.027005948 -0.10635628 0.021632828 -0.01833481 -0.08118933 -0.10371058
0.08441138 0.044033177 -0.04490131 0.045077264 0.081170104 0.009486333 0.08740764 -0.07469661
0.100753866 -0.121012375 -0.116572104 -0.028003067 -0.060149908 0.11174932 0.07638074 -0.05361311
0.10250682 -0.07089727 -0.103114516 0.12700202 -0.088878974 -0.055215973 0.050284863 -0.063415825

lstm.bias_hh_l0 f4 [256]
00000000: f081 fb3d a737 41bd 360e 933c 5afd c03d
00000010: 042f 87bd ace9 57bc 26ad 123d 9141 75bd
00000020: 22a1 9a3b b89a 4bbd 1533 a23d c06b d63d
00000030: 49c5 1bbd dddb e93d d93f 833c 0f92 2cbd
00000040: 6be0 41bd 4d1d cf3c 85c9 79bc abe6 eabd
00000050: aa6d bc3d f0b2 603c c509 bc3c 53f4 ea3d
00000060: 2541 813b 0f4b b63d fb9d aabd 77de 333d
00000070: 6c12 f4bd 388e 20bd f1ec 313d 08d0 953d
00000080: 7c83 a0bd fd61 c8bd 23ca 8e3d 8c45 c93d
00000090: 6053 abbd 2351 fd3d 2408 66bd 4cde b53d
000000a0: 10e4 803d facc 6a3d b45b 0cbd b896 7abd
000000b0: c872 2d3d 847f 9abd 88d4 bcbc 47cf 83bc
000000c0: c153 013d 5e0c 803d f474 343d f73a 943d
000000d0: 4ce1 cabd de99 8c3d bfac 9abd 9fe0 aa3d
000000e0: 70a6 b43d 86b7 00bc adc1 50bd e74b 5b3d
000000f0: 1501 dfbd ca71 26bc 3025 533d c105 c73d
00000100: 0042 d53b 766e b13d 61d8 b43d 8c5c 793d
00000110: a54d a63d 5599 3f3d 972f b8bd 7a03 4abd
00000120: 07ab 8cbd 183e 5cbd 2f5a a8bd 3171 e8bd
00000130: 1613 e73d 68f3 873d 066e c43d e501 dd3d
00000140: a4a9 9f3d a08f efbc 4f34 b3bd 95fd c4bd
00000150: 78ad 79bd ba26 d73d ef03 333d 7b79 dc3c
00000160: f150 ee3d 6ccc 58bd 388e c5bd 1b93 e9bd
00000170: ce15 e4bd 8933 753b 638b ee3d 9090 f4bd
00000180: 866d 703c 6674 b13d 6e70 e9bd f635 9e3d
00000190: d09c 9e3d 2514 37bd 32b8 b0bc 1773 ecbd
000001a0: 17cc bc3d 6026 c6bd 9e38 9d3d f45c fc3d
000001b0: a0bf e8bd 6ed3 5e3d e28f ffbd c456 b6bd
000001c0: b373 78bd fedc ba3d 424c 03bd b4d9 43bd
000001d0: 4002 7c3c c666 15bc 7435 353d 8063 f1bb
000001e0: d6d1 9b3d fd9b b03c 0664 e9bd 707a c7bd
000001f0: 14ca ed3d 01ca b83d eda0 cfbd 8ca0 7abd
00000200: 3caa 01bd 4821 06bd dcb2 49bd 4063 03bd
00000210: 923c 2e3c 4ef9 f2bd a8e5 b4bd 4b11 e53d
00000220: 8e8f a6bd 70a3 773d 4e6d 75bd 4bbe edbd
00000230: 25d4 003e 0cac aebd b8f2 56bd 14cc 973d
00000240: a50a 2bbd e30d 3cbc a631 c5bd 40e9 e63c
00000250: 2c3b 393d ce43 a7bd 888d b1bd 9ed1 e6bb
00000260: f433 133c de89 303d 5752 01be b13c d23d
00000270: 1852 4d3d a012 5cbd 9eca b03d 502f 233d
00000280: 50b3 7b3c be05 c63d 40bf cebd 880a 983c
00000290: 00c9 27bb e84a 92bd 7d33 5d3c 8c52 9fbd
000002a0: be69 103d 50aa 183d 7615 e73d f4f9 0dbd
000002b0: 985b ba3d 70b2 4e3c a297 f83d 428c c93d
000002c0: bcd2 e83d 24ea 223d 08a4 d23c acbe 9c3d
000002d0: 2cc8 b1bd 7eec 94ba 78c3 e53d 668a a23d
000002e0: 2407 c738 8a7d d4bc d0b1 7abd 524b 46bd
000002f0: 787f fe3d 2b1f 903d 6018 94bd 989e 9c3c
00000300: 605d 723c 1860 d93b 5937 9fbd e8e9 f2bd
00000310: 6c8a f1bd d67c 853d 7a1d 86bd debb c1bd
00000320: a0ed 953c 4ea5 9fbd 87cf f13c 1875 79bd
00000330: 0171 133c 1c9e aebd 0395 f83c 5c84 3ebd
00000340: 2dc7 0b3d 89b3 babd 2752 03bd ae22 f43d
00000350: 5d5b c23d b1d0 b83d 4a66 9ebd 02a3 333d
00000360: 59fd 74bd 444f acbd e4e0 e7b8 43aa 96bd
00000370: f864 94bd 5e4b ea3b c43d 6c3d 3af4 d9bd
00000380: 7345 88bd 6361 853d 91ea 0a3a 308f 16bc
00000390: c4c3 85bc 1231 51bc 1b56 78bd b70f 89bd
000003a0: a6ec 943d 2edf 44ba d8f7 b43d 1cba 47bd
000003b0: 75d7 46bc d769 ba3d c064 51bc b711 adbd
000003c0: e479 a53c 7460 533d c0f7 273d dab7 d83d
000003d0: 40f3 dfbc 3ac8 a6bd d18f 75bc f083 6e3d
000003e0: 5b28 213d c566 dfbd b0dd d13d abe1 823d
000003f0: 98af c3bc 5c35 ed3d 64dc 773d f0bd 043e
0.12280643 -0.047172215 0.017951112 0.09423323 -0.066007644 -0.01317827 0.03580966 -0.059876982
0.0047189156 -0.0497081 0.079198994 0.104697704 -0.038029943 0.11418889 0.016021656 -0.04213148
-0.047333162 0.025282526 -0.0152458 -0.11469778 0.09200604 0.013714537 0.022953877 0.114723824
0.0039445334 0.08901035 -0.08330914 0.04391333 -0.11917576 -0.03919813 0.043438856 0.073150694
-0.07837579 -0.09784315 0.06972148 0.09827718 -0.08365512 0.12368991 -0.056160107 0.088802904
0.062934995 0.057324387 -0.034267142 -0.061178893 0.042345792 -0.07543853 -0.023050562 -0.016090048
0.031574015 0.06252359 0.044056848 0.07237809 -0.09906253 0.06865285 -0.0755248 0.08343624
0.08820808 -0.007856255 -0.050965954 0.053539183 -0.10888878 -0.010158965 0.051549137 0.09717894
0.006508112 0.08663647 0.088303335 0.060879275 0.08120278 0.04677709 -0.08993452 -0.04931972
-0.068685584 -0.053770155 -0.08220326 -0.113497145 0.11282937 0.06638223 0.09591298 0.10791377
0.07796028 -0.02924329 -0.087502114 -0.096186794 -0.06095645 0.105054334 0.043704923 0.026913395
0.11636532 -0.052929327 -0.09646267 -0.11405011 -0.111369714 0.003741475 0.1164768 -0.119416356
0.01467455 0.08664779 -0.113983974 0.07725136 0.07744753 -0.044696946 -0.021572206 -0.11545389
0.092186145 -0.09675288 0.076768145 0.12322417 -0.113646746 0.054400854 -0.12478615 -0.08903268
-0.060657214 0.09124182 -0.032055147 -0.04781504 0.015381396 -0.009118741 0.04424043 -0.0073665977
0.076083824 0.021558756 -0.11396031 -0.0974015 0.11610809 0.09022904 -0.10138116 -0.061188266
-0.03165649 -0.032746583 -0.04924284 -0.032077074 0.010634558 -0.11863957 -0.08832866 0.11184939
-0.0813285 0.0604586 -0.059918694 -0.11608561 0.12580927 -0.08528909 -0.05247757 0.07411972
-0.0417582 -0.01147792 -0.0962861 0.028187394 0.045222446 -0.081672296 -0.08669573 -0.0070440313
0.008984555 0.04310023 -0.12629066 0.10265482 0.05012712 -0.0537287 0.08632396 0.039840043
0.015362576 0.09669064 -0.10095072 0.01855971 -0.0025601983 -0.071431935 0.013501045 -0.077794164
0.035257094 0.037271798 0.1128339 -0.034662202 0.09099501 0.012615785 0.12138297 0.09841205
0.113683194 0.039774075 0.025712982 0.07653555 -0.08680758 -0.0011361984 0.11218923 0.07936554
9.4903895e-05 -0.025938768 -0.06120473 -0.048411675 0.124266565 0.07037195 -0.07231212 0.019118592
0.01479277 0.0066337697 -0.077742286 -0.1186102 -0.1179398 0.06517951 -0.06548591 -0.09459661
0.018301785 -0.07795201 0.029517902 -0.060902685 0.00899911 -0.08526251 0.030344492 -0.046512946
0.034125496 -0.09116275 -0.03206077 0.11920677 0.094900824 0.0902418 -0.07734354 0.04385663
-0.059811924 -0.08413556 -0.000110568275 -0.073566936 -0.07245821 0.0071500978 0.05767609 -0.10642286
-0.066538714 0.06512716 0.00052992353 -0.009189412 -0.0163287 -0.012768047 -0.06062899 -0.066924505
0.072716996 -0.0007510063 0.08836335 -0.048761472 -0.01213633 0.091022186 -0.012780368 -0.084506445
0.020199724 0.051605657 0.041007757 0.10581942 -0.02733767 -0.08143659 -0.014987902 0.058231294
0.039345127 -0.109082736 0.10247362 0.06390699 -0.02388744 0.11582443 0.060512915 0.1296308

fc.weight f4 [18, 64]
00000000: 68cf 8fbd 32d5 a03d 196e 0b3e 5050 d63c
00000010: c45e c9bd d0ce bebd da06 f53b e05a 473d
00000020: c847 5a3d 5841 32bd a627 6d3d a5d4 acbb
00000030: 5d9e b93c 2bf1 8d3d 9e55 8bbd 5aba 80bd
00000040: b0d8 33bd bbf2 38bd c9b3 4dbb 134b 023d
00000050: d402 a2bd 6ee5 e23d 16a4 8d3d 9718 d23d
00000060: a57f 803c 021c d7bd 4f47 1e3d b9e0 653d
00000070: 22a5 9f3d 9eaf d6bd 33ba 4d3d 4895 cbba
00000080: 78df 03bd a321 cdbd 7606 8a3d a2b0 b7bd
00000090: 78e8 673d 5788 703d 1a05 42bd de74 183b
000000a0: 9f8c d8bc 0193 8abd dc16 cdbd c029 f83d
000000b0: 8c60 923d 13ee f33c a41a bb3c 2731 ef3d
000000c0: 2810 713d 0add 57ba 3fff 323d 3bd1 e53c
000000d0: a892 cd3d d619 6b3d b986 b5bd 4679 ac3c
000000e0: 068a a8bb acc5 72ba d034 d1bd ba80 013e
000000f0: 6499 edbd af22 a53d 5296 36bd cab8 493d
00000100: e0dd 2c3d 45db 64bd 28c6 d53d 9034 cf3c
00000110: 7327 1abd d953 cb3d b862 0abe d614 8a3d
00000120: 7b33 01be 04be 7a3d 1bae 0b3d c946 04be
00000130: 0c18 b73d 8df9 7e3c b02c 6abd ddb2 543d
00000140: d330 50bc a02f b939 3683 813d 8387 b03d
00000150: bc3b 023d 9034 ab3c c008 afbd a87a f43d
00000160: 7eae dd3d 25eb 023e c929 893d 32ef 42bd
00000170: d442 95bd 3c0b 973d cf34 3a3d 6fb8 833d
00000180: f336 33bc 5714 0d3d ada5 2fbd c066 b1bc
00000190: 7656 803d d951 99bd c317 16bd 21dd d23d
000001a0: af9d 96bd 931f af3c 9022 4a3c 1eae f7bd
000001b0: c0b0 febd 5812 0d3d 7fef 8dbd 2797 043c
000001c0: 648e d8bd 8cbc 883d 8fb6 5ebb fd80 b0bd
000001d0: b204 b23d 5ad8 7f3b 8285 803c 4f51 acbd
000001e0: d13f 4c3b 07a3 dc3d f8aa cebd 6ee7 473d
000001f0: 570b 053a 35f9 9d3c 3ad7 8a3d 2b27 f0bd
00000200: 5007 6fbc 7f47 82bd 34d7 b0bd ce01 f8bd
00000210: 7816 90bd 1dae 513d 21bc 6fbd becf 93bd
00000220: d5b3 5bbc 22c0 843d 0c2d 87bd 1e00 a13d
00000230: ebe9 0c3c 25d9 ca3b 94e4 bd3d 7bfc 07be
00000240: c1ee b73d 1bc7 863b 282b f3bc 3a65 0fbd
00000250: 9c4f 4c3d 1a25 d2bd 1f9d 943d d7f1 923c
00000260: d3fa e33d ce25 bb3d 6669 f9bd dada a83c
00000270: 403f 2d3b da1e 8f3d 2b2f 4cbd 0602 f7bc
00000280: 2f9e c7bd 1bbf 2dbd eaa6 ca3d e8de 91bd
00000290: 4930 963c 169c c93d 9120 f8bc 16da adbd
000002a0: 2f95 213d bef7 bcba cedc f83d 200a d03b
000002b0: 4e4d d2bd 36b3 32bc 6b55 b63d 8e2f c1bd
000002c0: baf1 0fbd 47ea babd 0542 e4bd f6da 8e3c
000002d0: 2426 f5bd df58 b6bd 05a2 9f3c 826d 04bd
000002e0: 0de2 c53d 5716 fb3d 3ef0 ebbd 99cb 363c
000002f0: fad2 643c 4d43 9abd 591f 9c3c af12 b3bd
00000300: 9ae4 ce3d 5fd9 f03d dd99 0ebd a039 c2bb
00000310: 1c3a e63d e9f8 0f3c a50f 37bd 7dd6 b13d
00000320: e6f5 59bd 5831 edbd ded3 be3d ab71 1e3c
00000330: b325 b83d 9c36 0fbd b246 a7bd c92d 6bbd
00000340: bb39 a43d 9f0e b8bd 107b e9bd 1789 aa3c
00000350: a2c3 dfbd 7ad4 eb3d d1ee b2bd d8b3 89bd
00000360: 0252 ff3d e248 a73c 3cd1 e13d c1ce 803d
00000370: 4a03 a63d 92c6 e639 d230 e13c 5fc7 8f3d
00000380: e7b3 933d dbd7 ebbd 14e7 313d f0c4 093c
00000390: 10fa a63d 68be 89bc d77e 0e3d 1c65 c23d
000003a0: d1fd d43c 02a6 6d3d a881 34bd 74ca a73d
000003b0: e044 ec3c d516 63bd 7e7f 533d f7fb 8f3d
000003c0: 2fc4 d83c 4c91 a9bd 43bd 8bbc d620 12bb
000003d0: 18f2 d4bc 180e 49bd 7a12 cc3d 2f87 8b3d
000003e0: c22b 2c3d 07cf e1bd 6ce6 dbbd e867 373d
000003f0: c810 2dbd 4c50 503d aa76 3c3d b4f0 84bb
-0.070219815 0.07853164 0.13616218 0.026161343 -0.09832528 -0.0931679 0.0074776234 0.04867065
0.053291112 -0.043519348 0.05789914 -0.0052743726 0.022658521 0.06930765 -0.068034396 -0.06285544
-0.04390782 -0.04515336 -0.0031387678 0.031809878 -0.07910696 0.110789165 0.069160625 0.102585964
0.015685866 -0.10503389 0.038642224 0.056122515 0.077951685 -0.10482715 0.0502264 -0.001553216
-0.03219554 -0.10016181 0.067395136 -0.08969237 0.056618184 0.058723774 -0.047368146 0.0023263018
-0.02643424 -0.0676632 -0.10014126 0.12117338 0.07147321 0.029776609 0.022839852 0.11679297
0.0588533 -0.00082345365 0.043700453 0.02805387 0.10037738 0.057397686 -0.08863587 0.021053921
-0.005143407 -0.0009261023 -0.10215151 0.12646762 -0.116015226 0.08063256 -0.04457695 0.049248494
0.042203784 -0.055873174 0.10438186 0.025293618 -0.037635278 0.09928102 -0.1351422 0.067422554
-0.12617294 0.06121637 0.034101587 -0.12917627 0.089401335 0.015562427 -0.057171524 0.05192839
-0.012706953 0.00035321433 0.063238546 0.08619597 0.03179525 0.020899087 -0.08546591 0.11937457
0.10824297 0.12785013 0.06697423 -0.047591396 -0.07288137 0.0737519 0.04546052 0.06431662
-0.010938394 0.034443226 -0.04288261 -0.02165544 0.06266491 -0.07486314 -0.036643755 0.10296083
-0.073542945 0.02137736 0.012337342 -0.12093757 -0.12436056 0.034441322 -0.06930446 0.008092678
-0.10574034 0.066765875 -0.0033983325 -0.086183526 0.08692302 0.0039038868 0.015688661 -0.08413946
0.0031165967 0.107732825 -0.100912035 0.048804693 0.0005075237 0.01928387 0.067793325 -0.11726221
-0.014589146 -0.06361293 -0.08634797 -0.12109719 -0.070355356 0.051191438 -0.058529023 -0.07217358
-0.0134095745 0.06481959 -0.06600389 0.078613505 0.008600692 0.0061904364 0.092721134 -0.13279907
0.089810856 0.0041130907 -0.029683664 -0.035008647 0.04988061 -0.10260983 0.07256531 0.017937584
0.11131825 0.0913807 -0.12178306 0.020612169 0.0026435405 0.06988306 -0.04984967 -0.030152332
-0.09746968 -0.04241858 0.098951176 -0.07122594 0.018333571 0.09844224 -0.030288966 -0.08488862
0.039448913 -0.0014417095 0.1215149 0.0063488632 -0.10268651 -0.010906985 0.08903011 -0.094328985
-0.035142638 -0.09126716 -0.11145405 0.017438393 -0.11970165 -0.089036696 0.019486437 -0.032330997
0.096622564 0.1226012 -0.11520432 0.01115694 0.013966316 -0.07532368 0.019057916 -0.08743798
0.10102196 0.1176021 -0.034814704 -0.0059272796 0.11241552 0.008787372 -0.044692654 0.086834885
-0.053213023 -0.11581677 0.09317754 0.009670655 0.089915656 -0.03496419 -0.08167781 -0.05741671
0.08018824 -0.08987164 -0.114004254 0.020817323 -0.10925986 0.11515136 -0.08736957 -0.067237556
0.124668136 0.020420495 0.110262364 0.06289435 0.08106096 0.00044016965 0.0274891 0.07020449
0.07212048 -0.115157805 0.043433264 0.00840877 0.081531644 -0.016814426 0.034788933 0.09491941
0.025999935 0.058019646 -0.044068962 0.08192912 0.028841436 -0.055441696 0.051635258 0.0703048
0.026460735 -0.08279666 -0.01705802 -0.0022297404 -0.025994346 -0.049085706 0.099644616 0.068128936
0.04203392 -0.110258155 -0.10737309 0.044776827 -0.042252332 0.050857827 0.046011604 -0.0040570144

fc.bias f4 [18]
00000000: 8816 c7bd d40b ec3d 2626 093d a757 d93d
00000010: 524a 05bd 0881 ea3d 88e4 a6bd 3462 0b3d
00000020: 95be cc3d 8106 f53c c9bd 6fbd ce16 c1bd
00000030: 5c13 64bd 5f9e ad3d 8f49 7d3d 0314 90bd
00000040: dfd9 cebd dee5 303b
-0.09721094 0.115256935 0.033483647 0.106124215 -0.03254158 0.11450392 -0.081490576 0.0340292
0.09997288 0.029910328 -0.058530603 -0.09428178 -0.055682525 0.084774725 0.06183773 -0.07035067
-0.10100149 0.002699248
